<?xml version="1.0" ?>
<net name="last" version="10">
	<layers>
		<layer id="0" name="data" type="Parameter" version="opset1">
			<data element_type="f16" shape="1,3,640,640"/>
			<output>
				<port id="0" precision="FP16">
					<dim>1</dim>
					<dim>3</dim>
					<dim>640</dim>
					<dim>640</dim>
				</port>
			</output>
		</layer>
		<layer id="1" name="Slice_4/Cast_146334_const" type="Const" version="opset1">
			<data element_type="i64" offset="0" shape="4" size="32"/>
			<output>
				<port id="1" precision="I64">
					<dim>4</dim>
				</port>
			</output>
		</layer>
		<layer id="2" name="Slice_4/Cast_246336_const" type="Const" version="opset1">
			<data element_type="i64" offset="32" shape="4" size="32"/>
			<output>
				<port id="1" precision="I64">
					<dim>4</dim>
				</port>
			</output>
		</layer>
		<layer id="3" name="Slice_4/Cast_346338_const" type="Const" version="opset1">
			<data element_type="i64" offset="64" shape="4" size="32"/>
			<output>
				<port id="1" precision="I64">
					<dim>4</dim>
				</port>
			</output>
		</layer>
		<layer id="4" name="Slice_4" type="StridedSlice" version="opset1">
			<data begin_mask="1,1,1,1" ellipsis_mask="0,0,0,0" end_mask="1,1,0,1" new_axis_mask="0,0,0,0" shrink_axis_mask="0,0,0,0"/>
			<input>
				<port id="0">
					<dim>1</dim>
					<dim>3</dim>
					<dim>640</dim>
					<dim>640</dim>
				</port>
				<port id="1">
					<dim>4</dim>
				</port>
				<port id="2">
					<dim>4</dim>
				</port>
				<port id="3">
					<dim>4</dim>
				</port>
			</input>
			<output>
				<port id="4" precision="FP16">
					<dim>1</dim>
					<dim>3</dim>
					<dim>320</dim>
					<dim>640</dim>
				</port>
			</output>
		</layer>
		<layer id="5" name="Slice_9/Cast_146232_const" type="Const" version="opset1">
			<data element_type="i64" offset="0" shape="4" size="32"/>
			<output>
				<port id="1" precision="I64">
					<dim>4</dim>
				</port>
			</output>
		</layer>
		<layer id="6" name="Slice_9/Cast_246234_const" type="Const" version="opset1">
			<data element_type="i64" offset="96" shape="4" size="32"/>
			<output>
				<port id="1" precision="I64">
					<dim>4</dim>
				</port>
			</output>
		</layer>
		<layer id="7" name="Slice_9/Cast_346236_const" type="Const" version="opset1">
			<data element_type="i64" offset="128" shape="4" size="32"/>
			<output>
				<port id="1" precision="I64">
					<dim>4</dim>
				</port>
			</output>
		</layer>
		<layer id="8" name="Slice_9" type="StridedSlice" version="opset1">
			<data begin_mask="1,1,1,1" ellipsis_mask="0,0,0,0" end_mask="1,1,1,0" new_axis_mask="0,0,0,0" shrink_axis_mask="0,0,0,0"/>
			<input>
				<port id="0">
					<dim>1</dim>
					<dim>3</dim>
					<dim>320</dim>
					<dim>640</dim>
				</port>
				<port id="1">
					<dim>4</dim>
				</port>
				<port id="2">
					<dim>4</dim>
				</port>
				<port id="3">
					<dim>4</dim>
				</port>
			</input>
			<output>
				<port id="4" precision="FP16">
					<dim>1</dim>
					<dim>3</dim>
					<dim>320</dim>
					<dim>320</dim>
				</port>
			</output>
		</layer>
		<layer id="9" name="Slice_14/Cast_146258_const" type="Const" version="opset1">
			<data element_type="i64" offset="160" shape="4" size="32"/>
			<output>
				<port id="1" precision="I64">
					<dim>4</dim>
				</port>
			</output>
		</layer>
		<layer id="10" name="Slice_14/Cast_246260_const" type="Const" version="opset1">
			<data element_type="i64" offset="32" shape="4" size="32"/>
			<output>
				<port id="1" precision="I64">
					<dim>4</dim>
				</port>
			</output>
		</layer>
		<layer id="11" name="Slice_14/Cast_346262_const" type="Const" version="opset1">
			<data element_type="i64" offset="64" shape="4" size="32"/>
			<output>
				<port id="1" precision="I64">
					<dim>4</dim>
				</port>
			</output>
		</layer>
		<layer id="12" name="Slice_14" type="StridedSlice" version="opset1">
			<data begin_mask="1,1,0,1" ellipsis_mask="0,0,0,0" end_mask="1,1,0,1" new_axis_mask="0,0,0,0" shrink_axis_mask="0,0,0,0"/>
			<input>
				<port id="0">
					<dim>1</dim>
					<dim>3</dim>
					<dim>640</dim>
					<dim>640</dim>
				</port>
				<port id="1">
					<dim>4</dim>
				</port>
				<port id="2">
					<dim>4</dim>
				</port>
				<port id="3">
					<dim>4</dim>
				</port>
			</input>
			<output>
				<port id="4" precision="FP16">
					<dim>1</dim>
					<dim>3</dim>
					<dim>320</dim>
					<dim>640</dim>
				</port>
			</output>
		</layer>
		<layer id="13" name="Slice_19/Cast_146160_const" type="Const" version="opset1">
			<data element_type="i64" offset="0" shape="4" size="32"/>
			<output>
				<port id="1" precision="I64">
					<dim>4</dim>
				</port>
			</output>
		</layer>
		<layer id="14" name="Slice_19/Cast_246162_const" type="Const" version="opset1">
			<data element_type="i64" offset="96" shape="4" size="32"/>
			<output>
				<port id="1" precision="I64">
					<dim>4</dim>
				</port>
			</output>
		</layer>
		<layer id="15" name="Slice_19/Cast_346164_const" type="Const" version="opset1">
			<data element_type="i64" offset="128" shape="4" size="32"/>
			<output>
				<port id="1" precision="I64">
					<dim>4</dim>
				</port>
			</output>
		</layer>
		<layer id="16" name="Slice_19" type="StridedSlice" version="opset1">
			<data begin_mask="1,1,1,1" ellipsis_mask="0,0,0,0" end_mask="1,1,1,0" new_axis_mask="0,0,0,0" shrink_axis_mask="0,0,0,0"/>
			<input>
				<port id="0">
					<dim>1</dim>
					<dim>3</dim>
					<dim>320</dim>
					<dim>640</dim>
				</port>
				<port id="1">
					<dim>4</dim>
				</port>
				<port id="2">
					<dim>4</dim>
				</port>
				<port id="3">
					<dim>4</dim>
				</port>
			</input>
			<output>
				<port id="4" precision="FP16">
					<dim>1</dim>
					<dim>3</dim>
					<dim>320</dim>
					<dim>320</dim>
				</port>
			</output>
		</layer>
		<layer id="17" name="Slice_24/Cast_146530_const" type="Const" version="opset1">
			<data element_type="i64" offset="0" shape="4" size="32"/>
			<output>
				<port id="1" precision="I64">
					<dim>4</dim>
				</port>
			</output>
		</layer>
		<layer id="18" name="Slice_24/Cast_246532_const" type="Const" version="opset1">
			<data element_type="i64" offset="32" shape="4" size="32"/>
			<output>
				<port id="1" precision="I64">
					<dim>4</dim>
				</port>
			</output>
		</layer>
		<layer id="19" name="Slice_24/Cast_346534_const" type="Const" version="opset1">
			<data element_type="i64" offset="64" shape="4" size="32"/>
			<output>
				<port id="1" precision="I64">
					<dim>4</dim>
				</port>
			</output>
		</layer>
		<layer id="20" name="Slice_24" type="StridedSlice" version="opset1">
			<data begin_mask="1,1,1,1" ellipsis_mask="0,0,0,0" end_mask="1,1,0,1" new_axis_mask="0,0,0,0" shrink_axis_mask="0,0,0,0"/>
			<input>
				<port id="0">
					<dim>1</dim>
					<dim>3</dim>
					<dim>640</dim>
					<dim>640</dim>
				</port>
				<port id="1">
					<dim>4</dim>
				</port>
				<port id="2">
					<dim>4</dim>
				</port>
				<port id="3">
					<dim>4</dim>
				</port>
			</input>
			<output>
				<port id="4" precision="FP16">
					<dim>1</dim>
					<dim>3</dim>
					<dim>320</dim>
					<dim>640</dim>
				</port>
			</output>
		</layer>
		<layer id="21" name="Slice_29/Cast_146732_const" type="Const" version="opset1">
			<data element_type="i64" offset="192" shape="4" size="32"/>
			<output>
				<port id="1" precision="I64">
					<dim>4</dim>
				</port>
			</output>
		</layer>
		<layer id="22" name="Slice_29/Cast_246734_const" type="Const" version="opset1">
			<data element_type="i64" offset="96" shape="4" size="32"/>
			<output>
				<port id="1" precision="I64">
					<dim>4</dim>
				</port>
			</output>
		</layer>
		<layer id="23" name="Slice_29/Cast_346736_const" type="Const" version="opset1">
			<data element_type="i64" offset="128" shape="4" size="32"/>
			<output>
				<port id="1" precision="I64">
					<dim>4</dim>
				</port>
			</output>
		</layer>
		<layer id="24" name="Slice_29" type="StridedSlice" version="opset1">
			<data begin_mask="1,1,1,0" ellipsis_mask="0,0,0,0" end_mask="1,1,1,0" new_axis_mask="0,0,0,0" shrink_axis_mask="0,0,0,0"/>
			<input>
				<port id="0">
					<dim>1</dim>
					<dim>3</dim>
					<dim>320</dim>
					<dim>640</dim>
				</port>
				<port id="1">
					<dim>4</dim>
				</port>
				<port id="2">
					<dim>4</dim>
				</port>
				<port id="3">
					<dim>4</dim>
				</port>
			</input>
			<output>
				<port id="4" precision="FP16">
					<dim>1</dim>
					<dim>3</dim>
					<dim>320</dim>
					<dim>320</dim>
				</port>
			</output>
		</layer>
		<layer id="25" name="Slice_34/Cast_146066_const" type="Const" version="opset1">
			<data element_type="i64" offset="160" shape="4" size="32"/>
			<output>
				<port id="1" precision="I64">
					<dim>4</dim>
				</port>
			</output>
		</layer>
		<layer id="26" name="Slice_34/Cast_246068_const" type="Const" version="opset1">
			<data element_type="i64" offset="32" shape="4" size="32"/>
			<output>
				<port id="1" precision="I64">
					<dim>4</dim>
				</port>
			</output>
		</layer>
		<layer id="27" name="Slice_34/Cast_346070_const" type="Const" version="opset1">
			<data element_type="i64" offset="64" shape="4" size="32"/>
			<output>
				<port id="1" precision="I64">
					<dim>4</dim>
				</port>
			</output>
		</layer>
		<layer id="28" name="Slice_34" type="StridedSlice" version="opset1">
			<data begin_mask="1,1,0,1" ellipsis_mask="0,0,0,0" end_mask="1,1,0,1" new_axis_mask="0,0,0,0" shrink_axis_mask="0,0,0,0"/>
			<input>
				<port id="0">
					<dim>1</dim>
					<dim>3</dim>
					<dim>640</dim>
					<dim>640</dim>
				</port>
				<port id="1">
					<dim>4</dim>
				</port>
				<port id="2">
					<dim>4</dim>
				</port>
				<port id="3">
					<dim>4</dim>
				</port>
			</input>
			<output>
				<port id="4" precision="FP16">
					<dim>1</dim>
					<dim>3</dim>
					<dim>320</dim>
					<dim>640</dim>
				</port>
			</output>
		</layer>
		<layer id="29" name="Slice_39/Cast_146422_const" type="Const" version="opset1">
			<data element_type="i64" offset="192" shape="4" size="32"/>
			<output>
				<port id="1" precision="I64">
					<dim>4</dim>
				</port>
			</output>
		</layer>
		<layer id="30" name="Slice_39/Cast_246424_const" type="Const" version="opset1">
			<data element_type="i64" offset="96" shape="4" size="32"/>
			<output>
				<port id="1" precision="I64">
					<dim>4</dim>
				</port>
			</output>
		</layer>
		<layer id="31" name="Slice_39/Cast_346426_const" type="Const" version="opset1">
			<data element_type="i64" offset="128" shape="4" size="32"/>
			<output>
				<port id="1" precision="I64">
					<dim>4</dim>
				</port>
			</output>
		</layer>
		<layer id="32" name="Slice_39" type="StridedSlice" version="opset1">
			<data begin_mask="1,1,1,0" ellipsis_mask="0,0,0,0" end_mask="1,1,1,0" new_axis_mask="0,0,0,0" shrink_axis_mask="0,0,0,0"/>
			<input>
				<port id="0">
					<dim>1</dim>
					<dim>3</dim>
					<dim>320</dim>
					<dim>640</dim>
				</port>
				<port id="1">
					<dim>4</dim>
				</port>
				<port id="2">
					<dim>4</dim>
				</port>
				<port id="3">
					<dim>4</dim>
				</port>
			</input>
			<output>
				<port id="4" precision="FP16">
					<dim>1</dim>
					<dim>3</dim>
					<dim>320</dim>
					<dim>320</dim>
				</port>
			</output>
		</layer>
		<layer id="33" name="Concat_40" type="Concat" version="opset1">
			<data axis="1"/>
			<input>
				<port id="0">
					<dim>1</dim>
					<dim>3</dim>
					<dim>320</dim>
					<dim>320</dim>
				</port>
				<port id="1">
					<dim>1</dim>
					<dim>3</dim>
					<dim>320</dim>
					<dim>320</dim>
				</port>
				<port id="2">
					<dim>1</dim>
					<dim>3</dim>
					<dim>320</dim>
					<dim>320</dim>
				</port>
				<port id="3">
					<dim>1</dim>
					<dim>3</dim>
					<dim>320</dim>
					<dim>320</dim>
				</port>
			</input>
			<output>
				<port id="4" precision="FP16">
					<dim>1</dim>
					<dim>12</dim>
					<dim>320</dim>
					<dim>320</dim>
				</port>
			</output>
		</layer>
		<layer id="34" name="onnx_initializer_node_model.0.conv.conv.weight/Output_0/Data__const" type="Const" version="opset1">
			<data element_type="f16" offset="224" shape="48,12,3,3" size="10368"/>
			<output>
				<port id="1" precision="FP16">
					<dim>48</dim>
					<dim>12</dim>
					<dim>3</dim>
					<dim>3</dim>
				</port>
			</output>
		</layer>
		<layer id="35" name="Conv_41/WithoutBiases" type="Convolution" version="opset1">
			<data dilations="1,1" output_padding="0,0" pads_begin="1,1" pads_end="1,1" strides="1,1"/>
			<input>
				<port id="0">
					<dim>1</dim>
					<dim>12</dim>
					<dim>320</dim>
					<dim>320</dim>
				</port>
				<port id="1">
					<dim>48</dim>
					<dim>12</dim>
					<dim>3</dim>
					<dim>3</dim>
				</port>
			</input>
			<output>
				<port id="2" precision="FP16">
					<dim>1</dim>
					<dim>48</dim>
					<dim>320</dim>
					<dim>320</dim>
				</port>
			</output>
		</layer>
		<layer id="36" name="Conv_41/Dims13131/copy_const" type="Const" version="opset1">
			<data element_type="f16" offset="10592" shape="1,48,1,1" size="96"/>
			<output>
				<port id="1" precision="FP16">
					<dim>1</dim>
					<dim>48</dim>
					<dim>1</dim>
					<dim>1</dim>
				</port>
			</output>
		</layer>
		<layer id="37" name="Conv_41" type="Add" version="opset1">
			<input>
				<port id="0">
					<dim>1</dim>
					<dim>48</dim>
					<dim>320</dim>
					<dim>320</dim>
				</port>
				<port id="1">
					<dim>1</dim>
					<dim>48</dim>
					<dim>1</dim>
					<dim>1</dim>
				</port>
			</input>
			<output>
				<port id="2" precision="FP16">
					<dim>1</dim>
					<dim>48</dim>
					<dim>320</dim>
					<dim>320</dim>
				</port>
			</output>
		</layer>
		<layer id="38" name="LeakyRelu_42/Cast_146514_const" type="Const" version="opset1">
			<data element_type="f32" offset="10688" shape="1" size="4"/>
			<output>
				<port id="1" precision="FP32">
					<dim>1</dim>
				</port>
			</output>
		</layer>
		<layer id="39" name="LeakyRelu_42" type="PReLU" version="opset1">
			<input>
				<port id="0">
					<dim>1</dim>
					<dim>48</dim>
					<dim>320</dim>
					<dim>320</dim>
				</port>
				<port id="1">
					<dim>1</dim>
				</port>
			</input>
			<output>
				<port id="2" precision="FP16">
					<dim>1</dim>
					<dim>48</dim>
					<dim>320</dim>
					<dim>320</dim>
				</port>
			</output>
		</layer>
		<layer id="40" name="onnx_initializer_node_model.1.conv.weight/Output_0/Data__const" type="Const" version="opset1">
			<data element_type="f16" offset="10692" shape="96,48,3,3" size="82944"/>
			<output>
				<port id="1" precision="FP16">
					<dim>96</dim>
					<dim>48</dim>
					<dim>3</dim>
					<dim>3</dim>
				</port>
			</output>
		</layer>
		<layer id="41" name="Conv_43/WithoutBiases" type="Convolution" version="opset1">
			<data dilations="1,1" output_padding="0,0" pads_begin="1,1" pads_end="1,1" strides="2,2"/>
			<input>
				<port id="0">
					<dim>1</dim>
					<dim>48</dim>
					<dim>320</dim>
					<dim>320</dim>
				</port>
				<port id="1">
					<dim>96</dim>
					<dim>48</dim>
					<dim>3</dim>
					<dim>3</dim>
				</port>
			</input>
			<output>
				<port id="2" precision="FP16">
					<dim>1</dim>
					<dim>96</dim>
					<dim>160</dim>
					<dim>160</dim>
				</port>
			</output>
		</layer>
		<layer id="42" name="Conv_43/Dims13365/copy_const" type="Const" version="opset1">
			<data element_type="f16" offset="93636" shape="1,96,1,1" size="192"/>
			<output>
				<port id="1" precision="FP16">
					<dim>1</dim>
					<dim>96</dim>
					<dim>1</dim>
					<dim>1</dim>
				</port>
			</output>
		</layer>
		<layer id="43" name="Conv_43" type="Add" version="opset1">
			<input>
				<port id="0">
					<dim>1</dim>
					<dim>96</dim>
					<dim>160</dim>
					<dim>160</dim>
				</port>
				<port id="1">
					<dim>1</dim>
					<dim>96</dim>
					<dim>1</dim>
					<dim>1</dim>
				</port>
			</input>
			<output>
				<port id="2" precision="FP16">
					<dim>1</dim>
					<dim>96</dim>
					<dim>160</dim>
					<dim>160</dim>
				</port>
			</output>
		</layer>
		<layer id="44" name="LeakyRelu_44/Cast_146224_const" type="Const" version="opset1">
			<data element_type="f32" offset="10688" shape="1" size="4"/>
			<output>
				<port id="1" precision="FP32">
					<dim>1</dim>
				</port>
			</output>
		</layer>
		<layer id="45" name="LeakyRelu_44" type="PReLU" version="opset1">
			<input>
				<port id="0">
					<dim>1</dim>
					<dim>96</dim>
					<dim>160</dim>
					<dim>160</dim>
				</port>
				<port id="1">
					<dim>1</dim>
				</port>
			</input>
			<output>
				<port id="2" precision="FP16">
					<dim>1</dim>
					<dim>96</dim>
					<dim>160</dim>
					<dim>160</dim>
				</port>
			</output>
		</layer>
		<layer id="46" name="onnx_initializer_node_model.2.cv1.conv.weight/Output_0/Data__const" type="Const" version="opset1">
			<data element_type="f16" offset="93828" shape="48,96,1,1" size="9216"/>
			<output>
				<port id="1" precision="FP16">
					<dim>48</dim>
					<dim>96</dim>
					<dim>1</dim>
					<dim>1</dim>
				</port>
			</output>
		</layer>
		<layer id="47" name="Conv_45/WithoutBiases" type="Convolution" version="opset1">
			<data dilations="1,1" output_padding="0,0" pads_begin="0,0" pads_end="0,0" strides="1,1"/>
			<input>
				<port id="0">
					<dim>1</dim>
					<dim>96</dim>
					<dim>160</dim>
					<dim>160</dim>
				</port>
				<port id="1">
					<dim>48</dim>
					<dim>96</dim>
					<dim>1</dim>
					<dim>1</dim>
				</port>
			</input>
			<output>
				<port id="2" precision="FP16">
					<dim>1</dim>
					<dim>48</dim>
					<dim>160</dim>
					<dim>160</dim>
				</port>
			</output>
		</layer>
		<layer id="48" name="Conv_45/Dims13191/copy_const" type="Const" version="opset1">
			<data element_type="f16" offset="103044" shape="1,48,1,1" size="96"/>
			<output>
				<port id="1" precision="FP16">
					<dim>1</dim>
					<dim>48</dim>
					<dim>1</dim>
					<dim>1</dim>
				</port>
			</output>
		</layer>
		<layer id="49" name="Conv_45" type="Add" version="opset1">
			<input>
				<port id="0">
					<dim>1</dim>
					<dim>48</dim>
					<dim>160</dim>
					<dim>160</dim>
				</port>
				<port id="1">
					<dim>1</dim>
					<dim>48</dim>
					<dim>1</dim>
					<dim>1</dim>
				</port>
			</input>
			<output>
				<port id="2" precision="FP16">
					<dim>1</dim>
					<dim>48</dim>
					<dim>160</dim>
					<dim>160</dim>
				</port>
			</output>
		</layer>
		<layer id="50" name="LeakyRelu_46/Cast_146304_const" type="Const" version="opset1">
			<data element_type="f32" offset="10688" shape="1" size="4"/>
			<output>
				<port id="1" precision="FP32">
					<dim>1</dim>
				</port>
			</output>
		</layer>
		<layer id="51" name="LeakyRelu_46" type="PReLU" version="opset1">
			<input>
				<port id="0">
					<dim>1</dim>
					<dim>48</dim>
					<dim>160</dim>
					<dim>160</dim>
				</port>
				<port id="1">
					<dim>1</dim>
				</port>
			</input>
			<output>
				<port id="2" precision="FP16">
					<dim>1</dim>
					<dim>48</dim>
					<dim>160</dim>
					<dim>160</dim>
				</port>
			</output>
		</layer>
		<layer id="52" name="onnx_initializer_node_model.2.m.0.cv1.conv.weight/Output_0/Data__const" type="Const" version="opset1">
			<data element_type="f16" offset="103140" shape="48,48,1,1" size="4608"/>
			<output>
				<port id="1" precision="FP16">
					<dim>48</dim>
					<dim>48</dim>
					<dim>1</dim>
					<dim>1</dim>
				</port>
			</output>
		</layer>
		<layer id="53" name="Conv_47/WithoutBiases" type="Convolution" version="opset1">
			<data dilations="1,1" output_padding="0,0" pads_begin="0,0" pads_end="0,0" strides="1,1"/>
			<input>
				<port id="0">
					<dim>1</dim>
					<dim>48</dim>
					<dim>160</dim>
					<dim>160</dim>
				</port>
				<port id="1">
					<dim>48</dim>
					<dim>48</dim>
					<dim>1</dim>
					<dim>1</dim>
				</port>
			</input>
			<output>
				<port id="2" precision="FP16">
					<dim>1</dim>
					<dim>48</dim>
					<dim>160</dim>
					<dim>160</dim>
				</port>
			</output>
		</layer>
		<layer id="54" name="Conv_47/Dims13197/copy_const" type="Const" version="opset1">
			<data element_type="f16" offset="107748" shape="1,48,1,1" size="96"/>
			<output>
				<port id="1" precision="FP16">
					<dim>1</dim>
					<dim>48</dim>
					<dim>1</dim>
					<dim>1</dim>
				</port>
			</output>
		</layer>
		<layer id="55" name="Conv_47" type="Add" version="opset1">
			<input>
				<port id="0">
					<dim>1</dim>
					<dim>48</dim>
					<dim>160</dim>
					<dim>160</dim>
				</port>
				<port id="1">
					<dim>1</dim>
					<dim>48</dim>
					<dim>1</dim>
					<dim>1</dim>
				</port>
			</input>
			<output>
				<port id="2" precision="FP16">
					<dim>1</dim>
					<dim>48</dim>
					<dim>160</dim>
					<dim>160</dim>
				</port>
			</output>
		</layer>
		<layer id="56" name="LeakyRelu_48/Cast_146100_const" type="Const" version="opset1">
			<data element_type="f32" offset="10688" shape="1" size="4"/>
			<output>
				<port id="1" precision="FP32">
					<dim>1</dim>
				</port>
			</output>
		</layer>
		<layer id="57" name="LeakyRelu_48" type="PReLU" version="opset1">
			<input>
				<port id="0">
					<dim>1</dim>
					<dim>48</dim>
					<dim>160</dim>
					<dim>160</dim>
				</port>
				<port id="1">
					<dim>1</dim>
				</port>
			</input>
			<output>
				<port id="2" precision="FP16">
					<dim>1</dim>
					<dim>48</dim>
					<dim>160</dim>
					<dim>160</dim>
				</port>
			</output>
		</layer>
		<layer id="58" name="onnx_initializer_node_model.2.m.0.cv2.conv.weight/Output_0/Data__const" type="Const" version="opset1">
			<data element_type="f16" offset="107844" shape="48,48,3,3" size="41472"/>
			<output>
				<port id="1" precision="FP16">
					<dim>48</dim>
					<dim>48</dim>
					<dim>3</dim>
					<dim>3</dim>
				</port>
			</output>
		</layer>
		<layer id="59" name="Conv_49/WithoutBiases" type="Convolution" version="opset1">
			<data dilations="1,1" output_padding="0,0" pads_begin="1,1" pads_end="1,1" strides="1,1"/>
			<input>
				<port id="0">
					<dim>1</dim>
					<dim>48</dim>
					<dim>160</dim>
					<dim>160</dim>
				</port>
				<port id="1">
					<dim>48</dim>
					<dim>48</dim>
					<dim>3</dim>
					<dim>3</dim>
				</port>
			</input>
			<output>
				<port id="2" precision="FP16">
					<dim>1</dim>
					<dim>48</dim>
					<dim>160</dim>
					<dim>160</dim>
				</port>
			</output>
		</layer>
		<layer id="60" name="Conv_49/Dims13047/copy_const" type="Const" version="opset1">
			<data element_type="f16" offset="149316" shape="1,48,1,1" size="96"/>
			<output>
				<port id="1" precision="FP16">
					<dim>1</dim>
					<dim>48</dim>
					<dim>1</dim>
					<dim>1</dim>
				</port>
			</output>
		</layer>
		<layer id="61" name="Conv_49" type="Add" version="opset1">
			<input>
				<port id="0">
					<dim>1</dim>
					<dim>48</dim>
					<dim>160</dim>
					<dim>160</dim>
				</port>
				<port id="1">
					<dim>1</dim>
					<dim>48</dim>
					<dim>1</dim>
					<dim>1</dim>
				</port>
			</input>
			<output>
				<port id="2" precision="FP16">
					<dim>1</dim>
					<dim>48</dim>
					<dim>160</dim>
					<dim>160</dim>
				</port>
			</output>
		</layer>
		<layer id="62" name="LeakyRelu_50/Cast_146400_const" type="Const" version="opset1">
			<data element_type="f32" offset="10688" shape="1" size="4"/>
			<output>
				<port id="1" precision="FP32">
					<dim>1</dim>
				</port>
			</output>
		</layer>
		<layer id="63" name="LeakyRelu_50" type="PReLU" version="opset1">
			<input>
				<port id="0">
					<dim>1</dim>
					<dim>48</dim>
					<dim>160</dim>
					<dim>160</dim>
				</port>
				<port id="1">
					<dim>1</dim>
				</port>
			</input>
			<output>
				<port id="2" precision="FP16">
					<dim>1</dim>
					<dim>48</dim>
					<dim>160</dim>
					<dim>160</dim>
				</port>
			</output>
		</layer>
		<layer id="64" name="Add_51" type="Add" version="opset1">
			<input>
				<port id="0">
					<dim>1</dim>
					<dim>48</dim>
					<dim>160</dim>
					<dim>160</dim>
				</port>
				<port id="1">
					<dim>1</dim>
					<dim>48</dim>
					<dim>160</dim>
					<dim>160</dim>
				</port>
			</input>
			<output>
				<port id="2" precision="FP16">
					<dim>1</dim>
					<dim>48</dim>
					<dim>160</dim>
					<dim>160</dim>
				</port>
			</output>
		</layer>
		<layer id="65" name="onnx_initializer_node_model.2.m.1.cv1.conv.weight/Output_0/Data__const" type="Const" version="opset1">
			<data element_type="f16" offset="149412" shape="48,48,1,1" size="4608"/>
			<output>
				<port id="1" precision="FP16">
					<dim>48</dim>
					<dim>48</dim>
					<dim>1</dim>
					<dim>1</dim>
				</port>
			</output>
		</layer>
		<layer id="66" name="Conv_52/WithoutBiases" type="Convolution" version="opset1">
			<data dilations="1,1" output_padding="0,0" pads_begin="0,0" pads_end="0,0" strides="1,1"/>
			<input>
				<port id="0">
					<dim>1</dim>
					<dim>48</dim>
					<dim>160</dim>
					<dim>160</dim>
				</port>
				<port id="1">
					<dim>48</dim>
					<dim>48</dim>
					<dim>1</dim>
					<dim>1</dim>
				</port>
			</input>
			<output>
				<port id="2" precision="FP16">
					<dim>1</dim>
					<dim>48</dim>
					<dim>160</dim>
					<dim>160</dim>
				</port>
			</output>
		</layer>
		<layer id="67" name="Conv_52/Dims13215/copy_const" type="Const" version="opset1">
			<data element_type="f16" offset="154020" shape="1,48,1,1" size="96"/>
			<output>
				<port id="1" precision="FP16">
					<dim>1</dim>
					<dim>48</dim>
					<dim>1</dim>
					<dim>1</dim>
				</port>
			</output>
		</layer>
		<layer id="68" name="Conv_52" type="Add" version="opset1">
			<input>
				<port id="0">
					<dim>1</dim>
					<dim>48</dim>
					<dim>160</dim>
					<dim>160</dim>
				</port>
				<port id="1">
					<dim>1</dim>
					<dim>48</dim>
					<dim>1</dim>
					<dim>1</dim>
				</port>
			</input>
			<output>
				<port id="2" precision="FP16">
					<dim>1</dim>
					<dim>48</dim>
					<dim>160</dim>
					<dim>160</dim>
				</port>
			</output>
		</layer>
		<layer id="69" name="LeakyRelu_53/Cast_146504_const" type="Const" version="opset1">
			<data element_type="f32" offset="10688" shape="1" size="4"/>
			<output>
				<port id="1" precision="FP32">
					<dim>1</dim>
				</port>
			</output>
		</layer>
		<layer id="70" name="LeakyRelu_53" type="PReLU" version="opset1">
			<input>
				<port id="0">
					<dim>1</dim>
					<dim>48</dim>
					<dim>160</dim>
					<dim>160</dim>
				</port>
				<port id="1">
					<dim>1</dim>
				</port>
			</input>
			<output>
				<port id="2" precision="FP16">
					<dim>1</dim>
					<dim>48</dim>
					<dim>160</dim>
					<dim>160</dim>
				</port>
			</output>
		</layer>
		<layer id="71" name="onnx_initializer_node_model.2.m.1.cv2.conv.weight/Output_0/Data__const" type="Const" version="opset1">
			<data element_type="f16" offset="154116" shape="48,48,3,3" size="41472"/>
			<output>
				<port id="1" precision="FP16">
					<dim>48</dim>
					<dim>48</dim>
					<dim>3</dim>
					<dim>3</dim>
				</port>
			</output>
		</layer>
		<layer id="72" name="Conv_54/WithoutBiases" type="Convolution" version="opset1">
			<data dilations="1,1" output_padding="0,0" pads_begin="1,1" pads_end="1,1" strides="1,1"/>
			<input>
				<port id="0">
					<dim>1</dim>
					<dim>48</dim>
					<dim>160</dim>
					<dim>160</dim>
				</port>
				<port id="1">
					<dim>48</dim>
					<dim>48</dim>
					<dim>3</dim>
					<dim>3</dim>
				</port>
			</input>
			<output>
				<port id="2" precision="FP16">
					<dim>1</dim>
					<dim>48</dim>
					<dim>160</dim>
					<dim>160</dim>
				</port>
			</output>
		</layer>
		<layer id="73" name="Conv_54/Dims12987/copy_const" type="Const" version="opset1">
			<data element_type="f16" offset="195588" shape="1,48,1,1" size="96"/>
			<output>
				<port id="1" precision="FP16">
					<dim>1</dim>
					<dim>48</dim>
					<dim>1</dim>
					<dim>1</dim>
				</port>
			</output>
		</layer>
		<layer id="74" name="Conv_54" type="Add" version="opset1">
			<input>
				<port id="0">
					<dim>1</dim>
					<dim>48</dim>
					<dim>160</dim>
					<dim>160</dim>
				</port>
				<port id="1">
					<dim>1</dim>
					<dim>48</dim>
					<dim>1</dim>
					<dim>1</dim>
				</port>
			</input>
			<output>
				<port id="2" precision="FP16">
					<dim>1</dim>
					<dim>48</dim>
					<dim>160</dim>
					<dim>160</dim>
				</port>
			</output>
		</layer>
		<layer id="75" name="LeakyRelu_55/Cast_146248_const" type="Const" version="opset1">
			<data element_type="f32" offset="10688" shape="1" size="4"/>
			<output>
				<port id="1" precision="FP32">
					<dim>1</dim>
				</port>
			</output>
		</layer>
		<layer id="76" name="LeakyRelu_55" type="PReLU" version="opset1">
			<input>
				<port id="0">
					<dim>1</dim>
					<dim>48</dim>
					<dim>160</dim>
					<dim>160</dim>
				</port>
				<port id="1">
					<dim>1</dim>
				</port>
			</input>
			<output>
				<port id="2" precision="FP16">
					<dim>1</dim>
					<dim>48</dim>
					<dim>160</dim>
					<dim>160</dim>
				</port>
			</output>
		</layer>
		<layer id="77" name="Add_56" type="Add" version="opset1">
			<input>
				<port id="0">
					<dim>1</dim>
					<dim>48</dim>
					<dim>160</dim>
					<dim>160</dim>
				</port>
				<port id="1">
					<dim>1</dim>
					<dim>48</dim>
					<dim>160</dim>
					<dim>160</dim>
				</port>
			</input>
			<output>
				<port id="2" precision="FP16">
					<dim>1</dim>
					<dim>48</dim>
					<dim>160</dim>
					<dim>160</dim>
				</port>
			</output>
		</layer>
		<layer id="78" name="onnx_initializer_node_model.2.cv3.weight/Output_0/Data__const" type="Const" version="opset1">
			<data element_type="f16" offset="195684" shape="48,48,1,1" size="4608"/>
			<output>
				<port id="1" precision="FP16">
					<dim>48</dim>
					<dim>48</dim>
					<dim>1</dim>
					<dim>1</dim>
				</port>
			</output>
		</layer>
		<layer id="79" name="Conv_57" type="Convolution" version="opset1">
			<data dilations="1,1" output_padding="0,0" pads_begin="0,0" pads_end="0,0" strides="1,1"/>
			<input>
				<port id="0">
					<dim>1</dim>
					<dim>48</dim>
					<dim>160</dim>
					<dim>160</dim>
				</port>
				<port id="1">
					<dim>48</dim>
					<dim>48</dim>
					<dim>1</dim>
					<dim>1</dim>
				</port>
			</input>
			<output>
				<port id="2" precision="FP16">
					<dim>1</dim>
					<dim>48</dim>
					<dim>160</dim>
					<dim>160</dim>
				</port>
			</output>
		</layer>
		<layer id="80" name="onnx_initializer_node_model.2.cv2.weight/Output_0/Data__const" type="Const" version="opset1">
			<data element_type="f16" offset="200292" shape="48,96,1,1" size="9216"/>
			<output>
				<port id="1" precision="FP16">
					<dim>48</dim>
					<dim>96</dim>
					<dim>1</dim>
					<dim>1</dim>
				</port>
			</output>
		</layer>
		<layer id="81" name="Conv_58" type="Convolution" version="opset1">
			<data dilations="1,1" output_padding="0,0" pads_begin="0,0" pads_end="0,0" strides="1,1"/>
			<input>
				<port id="0">
					<dim>1</dim>
					<dim>96</dim>
					<dim>160</dim>
					<dim>160</dim>
				</port>
				<port id="1">
					<dim>48</dim>
					<dim>96</dim>
					<dim>1</dim>
					<dim>1</dim>
				</port>
			</input>
			<output>
				<port id="2" precision="FP16">
					<dim>1</dim>
					<dim>48</dim>
					<dim>160</dim>
					<dim>160</dim>
				</port>
			</output>
		</layer>
		<layer id="82" name="Concat_59" type="Concat" version="opset1">
			<data axis="1"/>
			<input>
				<port id="0">
					<dim>1</dim>
					<dim>48</dim>
					<dim>160</dim>
					<dim>160</dim>
				</port>
				<port id="1">
					<dim>1</dim>
					<dim>48</dim>
					<dim>160</dim>
					<dim>160</dim>
				</port>
			</input>
			<output>
				<port id="2" precision="FP16">
					<dim>1</dim>
					<dim>96</dim>
					<dim>160</dim>
					<dim>160</dim>
				</port>
			</output>
		</layer>
		<layer id="83" name="data_mul_20460/copy_const" type="Const" version="opset1">
			<data element_type="f16" offset="209508" shape="1,96,1,1" size="192"/>
			<output>
				<port id="1" precision="FP16">
					<dim>1</dim>
					<dim>96</dim>
					<dim>1</dim>
					<dim>1</dim>
				</port>
			</output>
		</layer>
		<layer id="84" name="BatchNormalization_60/mean/Fused_Mul_" type="Multiply" version="opset1">
			<input>
				<port id="0">
					<dim>1</dim>
					<dim>96</dim>
					<dim>160</dim>
					<dim>160</dim>
				</port>
				<port id="1">
					<dim>1</dim>
					<dim>96</dim>
					<dim>1</dim>
					<dim>1</dim>
				</port>
			</input>
			<output>
				<port id="2" precision="FP16">
					<dim>1</dim>
					<dim>96</dim>
					<dim>160</dim>
					<dim>160</dim>
				</port>
			</output>
		</layer>
		<layer id="85" name="data_add_20462/copy_const" type="Const" version="opset1">
			<data element_type="f16" offset="209700" shape="1,96,1,1" size="192"/>
			<output>
				<port id="1" precision="FP16">
					<dim>1</dim>
					<dim>96</dim>
					<dim>1</dim>
					<dim>1</dim>
				</port>
			</output>
		</layer>
		<layer id="86" name="BatchNormalization_60/variance/Fused_Add_" type="Add" version="opset1">
			<input>
				<port id="0">
					<dim>1</dim>
					<dim>96</dim>
					<dim>160</dim>
					<dim>160</dim>
				</port>
				<port id="1">
					<dim>1</dim>
					<dim>96</dim>
					<dim>1</dim>
					<dim>1</dim>
				</port>
			</input>
			<output>
				<port id="2" precision="FP16">
					<dim>1</dim>
					<dim>96</dim>
					<dim>160</dim>
					<dim>160</dim>
				</port>
			</output>
		</layer>
		<layer id="87" name="LeakyRelu_61/Cast_146286_const" type="Const" version="opset1">
			<data element_type="f32" offset="10688" shape="1" size="4"/>
			<output>
				<port id="1" precision="FP32">
					<dim>1</dim>
				</port>
			</output>
		</layer>
		<layer id="88" name="LeakyRelu_61" type="PReLU" version="opset1">
			<input>
				<port id="0">
					<dim>1</dim>
					<dim>96</dim>
					<dim>160</dim>
					<dim>160</dim>
				</port>
				<port id="1">
					<dim>1</dim>
				</port>
			</input>
			<output>
				<port id="2" precision="FP16">
					<dim>1</dim>
					<dim>96</dim>
					<dim>160</dim>
					<dim>160</dim>
				</port>
			</output>
		</layer>
		<layer id="89" name="onnx_initializer_node_model.2.cv4.conv.weight/Output_0/Data__const" type="Const" version="opset1">
			<data element_type="f16" offset="209892" shape="96,96,1,1" size="18432"/>
			<output>
				<port id="1" precision="FP16">
					<dim>96</dim>
					<dim>96</dim>
					<dim>1</dim>
					<dim>1</dim>
				</port>
			</output>
		</layer>
		<layer id="90" name="Conv_62/WithoutBiases" type="Convolution" version="opset1">
			<data dilations="1,1" output_padding="0,0" pads_begin="0,0" pads_end="0,0" strides="1,1"/>
			<input>
				<port id="0">
					<dim>1</dim>
					<dim>96</dim>
					<dim>160</dim>
					<dim>160</dim>
				</port>
				<port id="1">
					<dim>96</dim>
					<dim>96</dim>
					<dim>1</dim>
					<dim>1</dim>
				</port>
			</input>
			<output>
				<port id="2" precision="FP16">
					<dim>1</dim>
					<dim>96</dim>
					<dim>160</dim>
					<dim>160</dim>
				</port>
			</output>
		</layer>
		<layer id="91" name="Conv_62/Dims12969/copy_const" type="Const" version="opset1">
			<data element_type="f16" offset="228324" shape="1,96,1,1" size="192"/>
			<output>
				<port id="1" precision="FP16">
					<dim>1</dim>
					<dim>96</dim>
					<dim>1</dim>
					<dim>1</dim>
				</port>
			</output>
		</layer>
		<layer id="92" name="Conv_62" type="Add" version="opset1">
			<input>
				<port id="0">
					<dim>1</dim>
					<dim>96</dim>
					<dim>160</dim>
					<dim>160</dim>
				</port>
				<port id="1">
					<dim>1</dim>
					<dim>96</dim>
					<dim>1</dim>
					<dim>1</dim>
				</port>
			</input>
			<output>
				<port id="2" precision="FP16">
					<dim>1</dim>
					<dim>96</dim>
					<dim>160</dim>
					<dim>160</dim>
				</port>
			</output>
		</layer>
		<layer id="93" name="LeakyRelu_63/Cast_146104_const" type="Const" version="opset1">
			<data element_type="f32" offset="10688" shape="1" size="4"/>
			<output>
				<port id="1" precision="FP32">
					<dim>1</dim>
				</port>
			</output>
		</layer>
		<layer id="94" name="LeakyRelu_63" type="PReLU" version="opset1">
			<input>
				<port id="0">
					<dim>1</dim>
					<dim>96</dim>
					<dim>160</dim>
					<dim>160</dim>
				</port>
				<port id="1">
					<dim>1</dim>
				</port>
			</input>
			<output>
				<port id="2" precision="FP16">
					<dim>1</dim>
					<dim>96</dim>
					<dim>160</dim>
					<dim>160</dim>
				</port>
			</output>
		</layer>
		<layer id="95" name="onnx_initializer_node_model.3.conv.weight/Output_0/Data__const" type="Const" version="opset1">
			<data element_type="f16" offset="228516" shape="192,96,3,3" size="331776"/>
			<output>
				<port id="1" precision="FP16">
					<dim>192</dim>
					<dim>96</dim>
					<dim>3</dim>
					<dim>3</dim>
				</port>
			</output>
		</layer>
		<layer id="96" name="Conv_64/WithoutBiases" type="Convolution" version="opset1">
			<data dilations="1,1" output_padding="0,0" pads_begin="1,1" pads_end="1,1" strides="2,2"/>
			<input>
				<port id="0">
					<dim>1</dim>
					<dim>96</dim>
					<dim>160</dim>
					<dim>160</dim>
				</port>
				<port id="1">
					<dim>192</dim>
					<dim>96</dim>
					<dim>3</dim>
					<dim>3</dim>
				</port>
			</input>
			<output>
				<port id="2" precision="FP16">
					<dim>1</dim>
					<dim>192</dim>
					<dim>80</dim>
					<dim>80</dim>
				</port>
			</output>
		</layer>
		<layer id="97" name="Conv_64/Dims13167/copy_const" type="Const" version="opset1">
			<data element_type="f16" offset="560292" shape="1,192,1,1" size="384"/>
			<output>
				<port id="1" precision="FP16">
					<dim>1</dim>
					<dim>192</dim>
					<dim>1</dim>
					<dim>1</dim>
				</port>
			</output>
		</layer>
		<layer id="98" name="Conv_64" type="Add" version="opset1">
			<input>
				<port id="0">
					<dim>1</dim>
					<dim>192</dim>
					<dim>80</dim>
					<dim>80</dim>
				</port>
				<port id="1">
					<dim>1</dim>
					<dim>192</dim>
					<dim>1</dim>
					<dim>1</dim>
				</port>
			</input>
			<output>
				<port id="2" precision="FP16">
					<dim>1</dim>
					<dim>192</dim>
					<dim>80</dim>
					<dim>80</dim>
				</port>
			</output>
		</layer>
		<layer id="99" name="LeakyRelu_65/Cast_146430_const" type="Const" version="opset1">
			<data element_type="f32" offset="10688" shape="1" size="4"/>
			<output>
				<port id="1" precision="FP32">
					<dim>1</dim>
				</port>
			</output>
		</layer>
		<layer id="100" name="LeakyRelu_65" type="PReLU" version="opset1">
			<input>
				<port id="0">
					<dim>1</dim>
					<dim>192</dim>
					<dim>80</dim>
					<dim>80</dim>
				</port>
				<port id="1">
					<dim>1</dim>
				</port>
			</input>
			<output>
				<port id="2" precision="FP16">
					<dim>1</dim>
					<dim>192</dim>
					<dim>80</dim>
					<dim>80</dim>
				</port>
			</output>
		</layer>
		<layer id="101" name="onnx_initializer_node_model.4.cv1.conv.weight/Output_0/Data__const" type="Const" version="opset1">
			<data element_type="f16" offset="560676" shape="96,192,1,1" size="36864"/>
			<output>
				<port id="1" precision="FP16">
					<dim>96</dim>
					<dim>192</dim>
					<dim>1</dim>
					<dim>1</dim>
				</port>
			</output>
		</layer>
		<layer id="102" name="Conv_66/WithoutBiases" type="Convolution" version="opset1">
			<data dilations="1,1" output_padding="0,0" pads_begin="0,0" pads_end="0,0" strides="1,1"/>
			<input>
				<port id="0">
					<dim>1</dim>
					<dim>192</dim>
					<dim>80</dim>
					<dim>80</dim>
				</port>
				<port id="1">
					<dim>96</dim>
					<dim>192</dim>
					<dim>1</dim>
					<dim>1</dim>
				</port>
			</input>
			<output>
				<port id="2" precision="FP16">
					<dim>1</dim>
					<dim>96</dim>
					<dim>80</dim>
					<dim>80</dim>
				</port>
			</output>
		</layer>
		<layer id="103" name="Conv_66/Dims12999/copy_const" type="Const" version="opset1">
			<data element_type="f16" offset="597540" shape="1,96,1,1" size="192"/>
			<output>
				<port id="1" precision="FP16">
					<dim>1</dim>
					<dim>96</dim>
					<dim>1</dim>
					<dim>1</dim>
				</port>
			</output>
		</layer>
		<layer id="104" name="Conv_66" type="Add" version="opset1">
			<input>
				<port id="0">
					<dim>1</dim>
					<dim>96</dim>
					<dim>80</dim>
					<dim>80</dim>
				</port>
				<port id="1">
					<dim>1</dim>
					<dim>96</dim>
					<dim>1</dim>
					<dim>1</dim>
				</port>
			</input>
			<output>
				<port id="2" precision="FP16">
					<dim>1</dim>
					<dim>96</dim>
					<dim>80</dim>
					<dim>80</dim>
				</port>
			</output>
		</layer>
		<layer id="105" name="LeakyRelu_67/Cast_146456_const" type="Const" version="opset1">
			<data element_type="f32" offset="10688" shape="1" size="4"/>
			<output>
				<port id="1" precision="FP32">
					<dim>1</dim>
				</port>
			</output>
		</layer>
		<layer id="106" name="LeakyRelu_67" type="PReLU" version="opset1">
			<input>
				<port id="0">
					<dim>1</dim>
					<dim>96</dim>
					<dim>80</dim>
					<dim>80</dim>
				</port>
				<port id="1">
					<dim>1</dim>
				</port>
			</input>
			<output>
				<port id="2" precision="FP16">
					<dim>1</dim>
					<dim>96</dim>
					<dim>80</dim>
					<dim>80</dim>
				</port>
			</output>
		</layer>
		<layer id="107" name="onnx_initializer_node_model.4.m.0.cv1.conv.weight/Output_0/Data__const" type="Const" version="opset1">
			<data element_type="f16" offset="597732" shape="96,96,1,1" size="18432"/>
			<output>
				<port id="1" precision="FP16">
					<dim>96</dim>
					<dim>96</dim>
					<dim>1</dim>
					<dim>1</dim>
				</port>
			</output>
		</layer>
		<layer id="108" name="Conv_68/WithoutBiases" type="Convolution" version="opset1">
			<data dilations="1,1" output_padding="0,0" pads_begin="0,0" pads_end="0,0" strides="1,1"/>
			<input>
				<port id="0">
					<dim>1</dim>
					<dim>96</dim>
					<dim>80</dim>
					<dim>80</dim>
				</port>
				<port id="1">
					<dim>96</dim>
					<dim>96</dim>
					<dim>1</dim>
					<dim>1</dim>
				</port>
			</input>
			<output>
				<port id="2" precision="FP16">
					<dim>1</dim>
					<dim>96</dim>
					<dim>80</dim>
					<dim>80</dim>
				</port>
			</output>
		</layer>
		<layer id="109" name="Conv_68/Dims13071/copy_const" type="Const" version="opset1">
			<data element_type="f16" offset="616164" shape="1,96,1,1" size="192"/>
			<output>
				<port id="1" precision="FP16">
					<dim>1</dim>
					<dim>96</dim>
					<dim>1</dim>
					<dim>1</dim>
				</port>
			</output>
		</layer>
		<layer id="110" name="Conv_68" type="Add" version="opset1">
			<input>
				<port id="0">
					<dim>1</dim>
					<dim>96</dim>
					<dim>80</dim>
					<dim>80</dim>
				</port>
				<port id="1">
					<dim>1</dim>
					<dim>96</dim>
					<dim>1</dim>
					<dim>1</dim>
				</port>
			</input>
			<output>
				<port id="2" precision="FP16">
					<dim>1</dim>
					<dim>96</dim>
					<dim>80</dim>
					<dim>80</dim>
				</port>
			</output>
		</layer>
		<layer id="111" name="LeakyRelu_69/Cast_146448_const" type="Const" version="opset1">
			<data element_type="f32" offset="10688" shape="1" size="4"/>
			<output>
				<port id="1" precision="FP32">
					<dim>1</dim>
				</port>
			</output>
		</layer>
		<layer id="112" name="LeakyRelu_69" type="PReLU" version="opset1">
			<input>
				<port id="0">
					<dim>1</dim>
					<dim>96</dim>
					<dim>80</dim>
					<dim>80</dim>
				</port>
				<port id="1">
					<dim>1</dim>
				</port>
			</input>
			<output>
				<port id="2" precision="FP16">
					<dim>1</dim>
					<dim>96</dim>
					<dim>80</dim>
					<dim>80</dim>
				</port>
			</output>
		</layer>
		<layer id="113" name="onnx_initializer_node_model.4.m.0.cv2.conv.weight/Output_0/Data__const" type="Const" version="opset1">
			<data element_type="f16" offset="616356" shape="96,96,3,3" size="165888"/>
			<output>
				<port id="1" precision="FP16">
					<dim>96</dim>
					<dim>96</dim>
					<dim>3</dim>
					<dim>3</dim>
				</port>
			</output>
		</layer>
		<layer id="114" name="Conv_70/WithoutBiases" type="Convolution" version="opset1">
			<data dilations="1,1" output_padding="0,0" pads_begin="1,1" pads_end="1,1" strides="1,1"/>
			<input>
				<port id="0">
					<dim>1</dim>
					<dim>96</dim>
					<dim>80</dim>
					<dim>80</dim>
				</port>
				<port id="1">
					<dim>96</dim>
					<dim>96</dim>
					<dim>3</dim>
					<dim>3</dim>
				</port>
			</input>
			<output>
				<port id="2" precision="FP16">
					<dim>1</dim>
					<dim>96</dim>
					<dim>80</dim>
					<dim>80</dim>
				</port>
			</output>
		</layer>
		<layer id="115" name="Conv_70/Dims13017/copy_const" type="Const" version="opset1">
			<data element_type="f16" offset="782244" shape="1,96,1,1" size="192"/>
			<output>
				<port id="1" precision="FP16">
					<dim>1</dim>
					<dim>96</dim>
					<dim>1</dim>
					<dim>1</dim>
				</port>
			</output>
		</layer>
		<layer id="116" name="Conv_70" type="Add" version="opset1">
			<input>
				<port id="0">
					<dim>1</dim>
					<dim>96</dim>
					<dim>80</dim>
					<dim>80</dim>
				</port>
				<port id="1">
					<dim>1</dim>
					<dim>96</dim>
					<dim>1</dim>
					<dim>1</dim>
				</port>
			</input>
			<output>
				<port id="2" precision="FP16">
					<dim>1</dim>
					<dim>96</dim>
					<dim>80</dim>
					<dim>80</dim>
				</port>
			</output>
		</layer>
		<layer id="117" name="LeakyRelu_71/Cast_146678_const" type="Const" version="opset1">
			<data element_type="f32" offset="10688" shape="1" size="4"/>
			<output>
				<port id="1" precision="FP32">
					<dim>1</dim>
				</port>
			</output>
		</layer>
		<layer id="118" name="LeakyRelu_71" type="PReLU" version="opset1">
			<input>
				<port id="0">
					<dim>1</dim>
					<dim>96</dim>
					<dim>80</dim>
					<dim>80</dim>
				</port>
				<port id="1">
					<dim>1</dim>
				</port>
			</input>
			<output>
				<port id="2" precision="FP16">
					<dim>1</dim>
					<dim>96</dim>
					<dim>80</dim>
					<dim>80</dim>
				</port>
			</output>
		</layer>
		<layer id="119" name="Add_72" type="Add" version="opset1">
			<input>
				<port id="0">
					<dim>1</dim>
					<dim>96</dim>
					<dim>80</dim>
					<dim>80</dim>
				</port>
				<port id="1">
					<dim>1</dim>
					<dim>96</dim>
					<dim>80</dim>
					<dim>80</dim>
				</port>
			</input>
			<output>
				<port id="2" precision="FP16">
					<dim>1</dim>
					<dim>96</dim>
					<dim>80</dim>
					<dim>80</dim>
				</port>
			</output>
		</layer>
		<layer id="120" name="onnx_initializer_node_model.4.m.1.cv1.conv.weight/Output_0/Data__const" type="Const" version="opset1">
			<data element_type="f16" offset="782436" shape="96,96,1,1" size="18432"/>
			<output>
				<port id="1" precision="FP16">
					<dim>96</dim>
					<dim>96</dim>
					<dim>1</dim>
					<dim>1</dim>
				</port>
			</output>
		</layer>
		<layer id="121" name="Conv_73/WithoutBiases" type="Convolution" version="opset1">
			<data dilations="1,1" output_padding="0,0" pads_begin="0,0" pads_end="0,0" strides="1,1"/>
			<input>
				<port id="0">
					<dim>1</dim>
					<dim>96</dim>
					<dim>80</dim>
					<dim>80</dim>
				</port>
				<port id="1">
					<dim>96</dim>
					<dim>96</dim>
					<dim>1</dim>
					<dim>1</dim>
				</port>
			</input>
			<output>
				<port id="2" precision="FP16">
					<dim>1</dim>
					<dim>96</dim>
					<dim>80</dim>
					<dim>80</dim>
				</port>
			</output>
		</layer>
		<layer id="122" name="Conv_73/Dims13203/copy_const" type="Const" version="opset1">
			<data element_type="f16" offset="800868" shape="1,96,1,1" size="192"/>
			<output>
				<port id="1" precision="FP16">
					<dim>1</dim>
					<dim>96</dim>
					<dim>1</dim>
					<dim>1</dim>
				</port>
			</output>
		</layer>
		<layer id="123" name="Conv_73" type="Add" version="opset1">
			<input>
				<port id="0">
					<dim>1</dim>
					<dim>96</dim>
					<dim>80</dim>
					<dim>80</dim>
				</port>
				<port id="1">
					<dim>1</dim>
					<dim>96</dim>
					<dim>1</dim>
					<dim>1</dim>
				</port>
			</input>
			<output>
				<port id="2" precision="FP16">
					<dim>1</dim>
					<dim>96</dim>
					<dim>80</dim>
					<dim>80</dim>
				</port>
			</output>
		</layer>
		<layer id="124" name="LeakyRelu_74/Cast_146136_const" type="Const" version="opset1">
			<data element_type="f32" offset="10688" shape="1" size="4"/>
			<output>
				<port id="1" precision="FP32">
					<dim>1</dim>
				</port>
			</output>
		</layer>
		<layer id="125" name="LeakyRelu_74" type="PReLU" version="opset1">
			<input>
				<port id="0">
					<dim>1</dim>
					<dim>96</dim>
					<dim>80</dim>
					<dim>80</dim>
				</port>
				<port id="1">
					<dim>1</dim>
				</port>
			</input>
			<output>
				<port id="2" precision="FP16">
					<dim>1</dim>
					<dim>96</dim>
					<dim>80</dim>
					<dim>80</dim>
				</port>
			</output>
		</layer>
		<layer id="126" name="onnx_initializer_node_model.4.m.1.cv2.conv.weight/Output_0/Data__const" type="Const" version="opset1">
			<data element_type="f16" offset="801060" shape="96,96,3,3" size="165888"/>
			<output>
				<port id="1" precision="FP16">
					<dim>96</dim>
					<dim>96</dim>
					<dim>3</dim>
					<dim>3</dim>
				</port>
			</output>
		</layer>
		<layer id="127" name="Conv_75/WithoutBiases" type="Convolution" version="opset1">
			<data dilations="1,1" output_padding="0,0" pads_begin="1,1" pads_end="1,1" strides="1,1"/>
			<input>
				<port id="0">
					<dim>1</dim>
					<dim>96</dim>
					<dim>80</dim>
					<dim>80</dim>
				</port>
				<port id="1">
					<dim>96</dim>
					<dim>96</dim>
					<dim>3</dim>
					<dim>3</dim>
				</port>
			</input>
			<output>
				<port id="2" precision="FP16">
					<dim>1</dim>
					<dim>96</dim>
					<dim>80</dim>
					<dim>80</dim>
				</port>
			</output>
		</layer>
		<layer id="128" name="Conv_75/Dims13347/copy_const" type="Const" version="opset1">
			<data element_type="f16" offset="966948" shape="1,96,1,1" size="192"/>
			<output>
				<port id="1" precision="FP16">
					<dim>1</dim>
					<dim>96</dim>
					<dim>1</dim>
					<dim>1</dim>
				</port>
			</output>
		</layer>
		<layer id="129" name="Conv_75" type="Add" version="opset1">
			<input>
				<port id="0">
					<dim>1</dim>
					<dim>96</dim>
					<dim>80</dim>
					<dim>80</dim>
				</port>
				<port id="1">
					<dim>1</dim>
					<dim>96</dim>
					<dim>1</dim>
					<dim>1</dim>
				</port>
			</input>
			<output>
				<port id="2" precision="FP16">
					<dim>1</dim>
					<dim>96</dim>
					<dim>80</dim>
					<dim>80</dim>
				</port>
			</output>
		</layer>
		<layer id="130" name="LeakyRelu_76/Cast_146412_const" type="Const" version="opset1">
			<data element_type="f32" offset="10688" shape="1" size="4"/>
			<output>
				<port id="1" precision="FP32">
					<dim>1</dim>
				</port>
			</output>
		</layer>
		<layer id="131" name="LeakyRelu_76" type="PReLU" version="opset1">
			<input>
				<port id="0">
					<dim>1</dim>
					<dim>96</dim>
					<dim>80</dim>
					<dim>80</dim>
				</port>
				<port id="1">
					<dim>1</dim>
				</port>
			</input>
			<output>
				<port id="2" precision="FP16">
					<dim>1</dim>
					<dim>96</dim>
					<dim>80</dim>
					<dim>80</dim>
				</port>
			</output>
		</layer>
		<layer id="132" name="Add_77" type="Add" version="opset1">
			<input>
				<port id="0">
					<dim>1</dim>
					<dim>96</dim>
					<dim>80</dim>
					<dim>80</dim>
				</port>
				<port id="1">
					<dim>1</dim>
					<dim>96</dim>
					<dim>80</dim>
					<dim>80</dim>
				</port>
			</input>
			<output>
				<port id="2" precision="FP16">
					<dim>1</dim>
					<dim>96</dim>
					<dim>80</dim>
					<dim>80</dim>
				</port>
			</output>
		</layer>
		<layer id="133" name="onnx_initializer_node_model.4.m.2.cv1.conv.weight/Output_0/Data__const" type="Const" version="opset1">
			<data element_type="f16" offset="967140" shape="96,96,1,1" size="18432"/>
			<output>
				<port id="1" precision="FP16">
					<dim>96</dim>
					<dim>96</dim>
					<dim>1</dim>
					<dim>1</dim>
				</port>
			</output>
		</layer>
		<layer id="134" name="Conv_78/WithoutBiases" type="Convolution" version="opset1">
			<data dilations="1,1" output_padding="0,0" pads_begin="0,0" pads_end="0,0" strides="1,1"/>
			<input>
				<port id="0">
					<dim>1</dim>
					<dim>96</dim>
					<dim>80</dim>
					<dim>80</dim>
				</port>
				<port id="1">
					<dim>96</dim>
					<dim>96</dim>
					<dim>1</dim>
					<dim>1</dim>
				</port>
			</input>
			<output>
				<port id="2" precision="FP16">
					<dim>1</dim>
					<dim>96</dim>
					<dim>80</dim>
					<dim>80</dim>
				</port>
			</output>
		</layer>
		<layer id="135" name="Conv_78/Dims13353/copy_const" type="Const" version="opset1">
			<data element_type="f16" offset="985572" shape="1,96,1,1" size="192"/>
			<output>
				<port id="1" precision="FP16">
					<dim>1</dim>
					<dim>96</dim>
					<dim>1</dim>
					<dim>1</dim>
				</port>
			</output>
		</layer>
		<layer id="136" name="Conv_78" type="Add" version="opset1">
			<input>
				<port id="0">
					<dim>1</dim>
					<dim>96</dim>
					<dim>80</dim>
					<dim>80</dim>
				</port>
				<port id="1">
					<dim>1</dim>
					<dim>96</dim>
					<dim>1</dim>
					<dim>1</dim>
				</port>
			</input>
			<output>
				<port id="2" precision="FP16">
					<dim>1</dim>
					<dim>96</dim>
					<dim>80</dim>
					<dim>80</dim>
				</port>
			</output>
		</layer>
		<layer id="137" name="LeakyRelu_79/Cast_146662_const" type="Const" version="opset1">
			<data element_type="f32" offset="10688" shape="1" size="4"/>
			<output>
				<port id="1" precision="FP32">
					<dim>1</dim>
				</port>
			</output>
		</layer>
		<layer id="138" name="LeakyRelu_79" type="PReLU" version="opset1">
			<input>
				<port id="0">
					<dim>1</dim>
					<dim>96</dim>
					<dim>80</dim>
					<dim>80</dim>
				</port>
				<port id="1">
					<dim>1</dim>
				</port>
			</input>
			<output>
				<port id="2" precision="FP16">
					<dim>1</dim>
					<dim>96</dim>
					<dim>80</dim>
					<dim>80</dim>
				</port>
			</output>
		</layer>
		<layer id="139" name="onnx_initializer_node_model.4.m.2.cv2.conv.weight/Output_0/Data__const" type="Const" version="opset1">
			<data element_type="f16" offset="985764" shape="96,96,3,3" size="165888"/>
			<output>
				<port id="1" precision="FP16">
					<dim>96</dim>
					<dim>96</dim>
					<dim>3</dim>
					<dim>3</dim>
				</port>
			</output>
		</layer>
		<layer id="140" name="Conv_80/WithoutBiases" type="Convolution" version="opset1">
			<data dilations="1,1" output_padding="0,0" pads_begin="1,1" pads_end="1,1" strides="1,1"/>
			<input>
				<port id="0">
					<dim>1</dim>
					<dim>96</dim>
					<dim>80</dim>
					<dim>80</dim>
				</port>
				<port id="1">
					<dim>96</dim>
					<dim>96</dim>
					<dim>3</dim>
					<dim>3</dim>
				</port>
			</input>
			<output>
				<port id="2" precision="FP16">
					<dim>1</dim>
					<dim>96</dim>
					<dim>80</dim>
					<dim>80</dim>
				</port>
			</output>
		</layer>
		<layer id="141" name="Conv_80/Dims13269/copy_const" type="Const" version="opset1">
			<data element_type="f16" offset="1151652" shape="1,96,1,1" size="192"/>
			<output>
				<port id="1" precision="FP16">
					<dim>1</dim>
					<dim>96</dim>
					<dim>1</dim>
					<dim>1</dim>
				</port>
			</output>
		</layer>
		<layer id="142" name="Conv_80" type="Add" version="opset1">
			<input>
				<port id="0">
					<dim>1</dim>
					<dim>96</dim>
					<dim>80</dim>
					<dim>80</dim>
				</port>
				<port id="1">
					<dim>1</dim>
					<dim>96</dim>
					<dim>1</dim>
					<dim>1</dim>
				</port>
			</input>
			<output>
				<port id="2" precision="FP16">
					<dim>1</dim>
					<dim>96</dim>
					<dim>80</dim>
					<dim>80</dim>
				</port>
			</output>
		</layer>
		<layer id="143" name="LeakyRelu_81/Cast_146300_const" type="Const" version="opset1">
			<data element_type="f32" offset="10688" shape="1" size="4"/>
			<output>
				<port id="1" precision="FP32">
					<dim>1</dim>
				</port>
			</output>
		</layer>
		<layer id="144" name="LeakyRelu_81" type="PReLU" version="opset1">
			<input>
				<port id="0">
					<dim>1</dim>
					<dim>96</dim>
					<dim>80</dim>
					<dim>80</dim>
				</port>
				<port id="1">
					<dim>1</dim>
				</port>
			</input>
			<output>
				<port id="2" precision="FP16">
					<dim>1</dim>
					<dim>96</dim>
					<dim>80</dim>
					<dim>80</dim>
				</port>
			</output>
		</layer>
		<layer id="145" name="Add_82" type="Add" version="opset1">
			<input>
				<port id="0">
					<dim>1</dim>
					<dim>96</dim>
					<dim>80</dim>
					<dim>80</dim>
				</port>
				<port id="1">
					<dim>1</dim>
					<dim>96</dim>
					<dim>80</dim>
					<dim>80</dim>
				</port>
			</input>
			<output>
				<port id="2" precision="FP16">
					<dim>1</dim>
					<dim>96</dim>
					<dim>80</dim>
					<dim>80</dim>
				</port>
			</output>
		</layer>
		<layer id="146" name="onnx_initializer_node_model.4.m.3.cv1.conv.weight/Output_0/Data__const" type="Const" version="opset1">
			<data element_type="f16" offset="1151844" shape="96,96,1,1" size="18432"/>
			<output>
				<port id="1" precision="FP16">
					<dim>96</dim>
					<dim>96</dim>
					<dim>1</dim>
					<dim>1</dim>
				</port>
			</output>
		</layer>
		<layer id="147" name="Conv_83/WithoutBiases" type="Convolution" version="opset1">
			<data dilations="1,1" output_padding="0,0" pads_begin="0,0" pads_end="0,0" strides="1,1"/>
			<input>
				<port id="0">
					<dim>1</dim>
					<dim>96</dim>
					<dim>80</dim>
					<dim>80</dim>
				</port>
				<port id="1">
					<dim>96</dim>
					<dim>96</dim>
					<dim>1</dim>
					<dim>1</dim>
				</port>
			</input>
			<output>
				<port id="2" precision="FP16">
					<dim>1</dim>
					<dim>96</dim>
					<dim>80</dim>
					<dim>80</dim>
				</port>
			</output>
		</layer>
		<layer id="148" name="Conv_83/Dims12957/copy_const" type="Const" version="opset1">
			<data element_type="f16" offset="1170276" shape="1,96,1,1" size="192"/>
			<output>
				<port id="1" precision="FP16">
					<dim>1</dim>
					<dim>96</dim>
					<dim>1</dim>
					<dim>1</dim>
				</port>
			</output>
		</layer>
		<layer id="149" name="Conv_83" type="Add" version="opset1">
			<input>
				<port id="0">
					<dim>1</dim>
					<dim>96</dim>
					<dim>80</dim>
					<dim>80</dim>
				</port>
				<port id="1">
					<dim>1</dim>
					<dim>96</dim>
					<dim>1</dim>
					<dim>1</dim>
				</port>
			</input>
			<output>
				<port id="2" precision="FP16">
					<dim>1</dim>
					<dim>96</dim>
					<dim>80</dim>
					<dim>80</dim>
				</port>
			</output>
		</layer>
		<layer id="150" name="LeakyRelu_84/Cast_146410_const" type="Const" version="opset1">
			<data element_type="f32" offset="10688" shape="1" size="4"/>
			<output>
				<port id="1" precision="FP32">
					<dim>1</dim>
				</port>
			</output>
		</layer>
		<layer id="151" name="LeakyRelu_84" type="PReLU" version="opset1">
			<input>
				<port id="0">
					<dim>1</dim>
					<dim>96</dim>
					<dim>80</dim>
					<dim>80</dim>
				</port>
				<port id="1">
					<dim>1</dim>
				</port>
			</input>
			<output>
				<port id="2" precision="FP16">
					<dim>1</dim>
					<dim>96</dim>
					<dim>80</dim>
					<dim>80</dim>
				</port>
			</output>
		</layer>
		<layer id="152" name="onnx_initializer_node_model.4.m.3.cv2.conv.weight/Output_0/Data__const" type="Const" version="opset1">
			<data element_type="f16" offset="1170468" shape="96,96,3,3" size="165888"/>
			<output>
				<port id="1" precision="FP16">
					<dim>96</dim>
					<dim>96</dim>
					<dim>3</dim>
					<dim>3</dim>
				</port>
			</output>
		</layer>
		<layer id="153" name="Conv_85/WithoutBiases" type="Convolution" version="opset1">
			<data dilations="1,1" output_padding="0,0" pads_begin="1,1" pads_end="1,1" strides="1,1"/>
			<input>
				<port id="0">
					<dim>1</dim>
					<dim>96</dim>
					<dim>80</dim>
					<dim>80</dim>
				</port>
				<port id="1">
					<dim>96</dim>
					<dim>96</dim>
					<dim>3</dim>
					<dim>3</dim>
				</port>
			</input>
			<output>
				<port id="2" precision="FP16">
					<dim>1</dim>
					<dim>96</dim>
					<dim>80</dim>
					<dim>80</dim>
				</port>
			</output>
		</layer>
		<layer id="154" name="Conv_85/Dims13107/copy_const" type="Const" version="opset1">
			<data element_type="f16" offset="1336356" shape="1,96,1,1" size="192"/>
			<output>
				<port id="1" precision="FP16">
					<dim>1</dim>
					<dim>96</dim>
					<dim>1</dim>
					<dim>1</dim>
				</port>
			</output>
		</layer>
		<layer id="155" name="Conv_85" type="Add" version="opset1">
			<input>
				<port id="0">
					<dim>1</dim>
					<dim>96</dim>
					<dim>80</dim>
					<dim>80</dim>
				</port>
				<port id="1">
					<dim>1</dim>
					<dim>96</dim>
					<dim>1</dim>
					<dim>1</dim>
				</port>
			</input>
			<output>
				<port id="2" precision="FP16">
					<dim>1</dim>
					<dim>96</dim>
					<dim>80</dim>
					<dim>80</dim>
				</port>
			</output>
		</layer>
		<layer id="156" name="LeakyRelu_86/Cast_146454_const" type="Const" version="opset1">
			<data element_type="f32" offset="10688" shape="1" size="4"/>
			<output>
				<port id="1" precision="FP32">
					<dim>1</dim>
				</port>
			</output>
		</layer>
		<layer id="157" name="LeakyRelu_86" type="PReLU" version="opset1">
			<input>
				<port id="0">
					<dim>1</dim>
					<dim>96</dim>
					<dim>80</dim>
					<dim>80</dim>
				</port>
				<port id="1">
					<dim>1</dim>
				</port>
			</input>
			<output>
				<port id="2" precision="FP16">
					<dim>1</dim>
					<dim>96</dim>
					<dim>80</dim>
					<dim>80</dim>
				</port>
			</output>
		</layer>
		<layer id="158" name="Add_87" type="Add" version="opset1">
			<input>
				<port id="0">
					<dim>1</dim>
					<dim>96</dim>
					<dim>80</dim>
					<dim>80</dim>
				</port>
				<port id="1">
					<dim>1</dim>
					<dim>96</dim>
					<dim>80</dim>
					<dim>80</dim>
				</port>
			</input>
			<output>
				<port id="2" precision="FP16">
					<dim>1</dim>
					<dim>96</dim>
					<dim>80</dim>
					<dim>80</dim>
				</port>
			</output>
		</layer>
		<layer id="159" name="onnx_initializer_node_model.4.m.4.cv1.conv.weight/Output_0/Data__const" type="Const" version="opset1">
			<data element_type="f16" offset="1336548" shape="96,96,1,1" size="18432"/>
			<output>
				<port id="1" precision="FP16">
					<dim>96</dim>
					<dim>96</dim>
					<dim>1</dim>
					<dim>1</dim>
				</port>
			</output>
		</layer>
		<layer id="160" name="Conv_88/WithoutBiases" type="Convolution" version="opset1">
			<data dilations="1,1" output_padding="0,0" pads_begin="0,0" pads_end="0,0" strides="1,1"/>
			<input>
				<port id="0">
					<dim>1</dim>
					<dim>96</dim>
					<dim>80</dim>
					<dim>80</dim>
				</port>
				<port id="1">
					<dim>96</dim>
					<dim>96</dim>
					<dim>1</dim>
					<dim>1</dim>
				</port>
			</input>
			<output>
				<port id="2" precision="FP16">
					<dim>1</dim>
					<dim>96</dim>
					<dim>80</dim>
					<dim>80</dim>
				</port>
			</output>
		</layer>
		<layer id="161" name="Conv_88/Dims13155/copy_const" type="Const" version="opset1">
			<data element_type="f16" offset="1354980" shape="1,96,1,1" size="192"/>
			<output>
				<port id="1" precision="FP16">
					<dim>1</dim>
					<dim>96</dim>
					<dim>1</dim>
					<dim>1</dim>
				</port>
			</output>
		</layer>
		<layer id="162" name="Conv_88" type="Add" version="opset1">
			<input>
				<port id="0">
					<dim>1</dim>
					<dim>96</dim>
					<dim>80</dim>
					<dim>80</dim>
				</port>
				<port id="1">
					<dim>1</dim>
					<dim>96</dim>
					<dim>1</dim>
					<dim>1</dim>
				</port>
			</input>
			<output>
				<port id="2" precision="FP16">
					<dim>1</dim>
					<dim>96</dim>
					<dim>80</dim>
					<dim>80</dim>
				</port>
			</output>
		</layer>
		<layer id="163" name="LeakyRelu_89/Cast_146728_const" type="Const" version="opset1">
			<data element_type="f32" offset="10688" shape="1" size="4"/>
			<output>
				<port id="1" precision="FP32">
					<dim>1</dim>
				</port>
			</output>
		</layer>
		<layer id="164" name="LeakyRelu_89" type="PReLU" version="opset1">
			<input>
				<port id="0">
					<dim>1</dim>
					<dim>96</dim>
					<dim>80</dim>
					<dim>80</dim>
				</port>
				<port id="1">
					<dim>1</dim>
				</port>
			</input>
			<output>
				<port id="2" precision="FP16">
					<dim>1</dim>
					<dim>96</dim>
					<dim>80</dim>
					<dim>80</dim>
				</port>
			</output>
		</layer>
		<layer id="165" name="onnx_initializer_node_model.4.m.4.cv2.conv.weight/Output_0/Data__const" type="Const" version="opset1">
			<data element_type="f16" offset="1355172" shape="96,96,3,3" size="165888"/>
			<output>
				<port id="1" precision="FP16">
					<dim>96</dim>
					<dim>96</dim>
					<dim>3</dim>
					<dim>3</dim>
				</port>
			</output>
		</layer>
		<layer id="166" name="Conv_90/WithoutBiases" type="Convolution" version="opset1">
			<data dilations="1,1" output_padding="0,0" pads_begin="1,1" pads_end="1,1" strides="1,1"/>
			<input>
				<port id="0">
					<dim>1</dim>
					<dim>96</dim>
					<dim>80</dim>
					<dim>80</dim>
				</port>
				<port id="1">
					<dim>96</dim>
					<dim>96</dim>
					<dim>3</dim>
					<dim>3</dim>
				</port>
			</input>
			<output>
				<port id="2" precision="FP16">
					<dim>1</dim>
					<dim>96</dim>
					<dim>80</dim>
					<dim>80</dim>
				</port>
			</output>
		</layer>
		<layer id="167" name="Conv_90/Dims12993/copy_const" type="Const" version="opset1">
			<data element_type="f16" offset="1521060" shape="1,96,1,1" size="192"/>
			<output>
				<port id="1" precision="FP16">
					<dim>1</dim>
					<dim>96</dim>
					<dim>1</dim>
					<dim>1</dim>
				</port>
			</output>
		</layer>
		<layer id="168" name="Conv_90" type="Add" version="opset1">
			<input>
				<port id="0">
					<dim>1</dim>
					<dim>96</dim>
					<dim>80</dim>
					<dim>80</dim>
				</port>
				<port id="1">
					<dim>1</dim>
					<dim>96</dim>
					<dim>1</dim>
					<dim>1</dim>
				</port>
			</input>
			<output>
				<port id="2" precision="FP16">
					<dim>1</dim>
					<dim>96</dim>
					<dim>80</dim>
					<dim>80</dim>
				</port>
			</output>
		</layer>
		<layer id="169" name="LeakyRelu_91/Cast_146502_const" type="Const" version="opset1">
			<data element_type="f32" offset="10688" shape="1" size="4"/>
			<output>
				<port id="1" precision="FP32">
					<dim>1</dim>
				</port>
			</output>
		</layer>
		<layer id="170" name="LeakyRelu_91" type="PReLU" version="opset1">
			<input>
				<port id="0">
					<dim>1</dim>
					<dim>96</dim>
					<dim>80</dim>
					<dim>80</dim>
				</port>
				<port id="1">
					<dim>1</dim>
				</port>
			</input>
			<output>
				<port id="2" precision="FP16">
					<dim>1</dim>
					<dim>96</dim>
					<dim>80</dim>
					<dim>80</dim>
				</port>
			</output>
		</layer>
		<layer id="171" name="Add_92" type="Add" version="opset1">
			<input>
				<port id="0">
					<dim>1</dim>
					<dim>96</dim>
					<dim>80</dim>
					<dim>80</dim>
				</port>
				<port id="1">
					<dim>1</dim>
					<dim>96</dim>
					<dim>80</dim>
					<dim>80</dim>
				</port>
			</input>
			<output>
				<port id="2" precision="FP16">
					<dim>1</dim>
					<dim>96</dim>
					<dim>80</dim>
					<dim>80</dim>
				</port>
			</output>
		</layer>
		<layer id="172" name="onnx_initializer_node_model.4.m.5.cv1.conv.weight/Output_0/Data__const" type="Const" version="opset1">
			<data element_type="f16" offset="1521252" shape="96,96,1,1" size="18432"/>
			<output>
				<port id="1" precision="FP16">
					<dim>96</dim>
					<dim>96</dim>
					<dim>1</dim>
					<dim>1</dim>
				</port>
			</output>
		</layer>
		<layer id="173" name="Conv_93/WithoutBiases" type="Convolution" version="opset1">
			<data dilations="1,1" output_padding="0,0" pads_begin="0,0" pads_end="0,0" strides="1,1"/>
			<input>
				<port id="0">
					<dim>1</dim>
					<dim>96</dim>
					<dim>80</dim>
					<dim>80</dim>
				</port>
				<port id="1">
					<dim>96</dim>
					<dim>96</dim>
					<dim>1</dim>
					<dim>1</dim>
				</port>
			</input>
			<output>
				<port id="2" precision="FP16">
					<dim>1</dim>
					<dim>96</dim>
					<dim>80</dim>
					<dim>80</dim>
				</port>
			</output>
		</layer>
		<layer id="174" name="Conv_93/Dims13041/copy_const" type="Const" version="opset1">
			<data element_type="f16" offset="1539684" shape="1,96,1,1" size="192"/>
			<output>
				<port id="1" precision="FP16">
					<dim>1</dim>
					<dim>96</dim>
					<dim>1</dim>
					<dim>1</dim>
				</port>
			</output>
		</layer>
		<layer id="175" name="Conv_93" type="Add" version="opset1">
			<input>
				<port id="0">
					<dim>1</dim>
					<dim>96</dim>
					<dim>80</dim>
					<dim>80</dim>
				</port>
				<port id="1">
					<dim>1</dim>
					<dim>96</dim>
					<dim>1</dim>
					<dim>1</dim>
				</port>
			</input>
			<output>
				<port id="2" precision="FP16">
					<dim>1</dim>
					<dim>96</dim>
					<dim>80</dim>
					<dim>80</dim>
				</port>
			</output>
		</layer>
		<layer id="176" name="LeakyRelu_94/Cast_146590_const" type="Const" version="opset1">
			<data element_type="f32" offset="10688" shape="1" size="4"/>
			<output>
				<port id="1" precision="FP32">
					<dim>1</dim>
				</port>
			</output>
		</layer>
		<layer id="177" name="LeakyRelu_94" type="PReLU" version="opset1">
			<input>
				<port id="0">
					<dim>1</dim>
					<dim>96</dim>
					<dim>80</dim>
					<dim>80</dim>
				</port>
				<port id="1">
					<dim>1</dim>
				</port>
			</input>
			<output>
				<port id="2" precision="FP16">
					<dim>1</dim>
					<dim>96</dim>
					<dim>80</dim>
					<dim>80</dim>
				</port>
			</output>
		</layer>
		<layer id="178" name="onnx_initializer_node_model.4.m.5.cv2.conv.weight/Output_0/Data__const" type="Const" version="opset1">
			<data element_type="f16" offset="1539876" shape="96,96,3,3" size="165888"/>
			<output>
				<port id="1" precision="FP16">
					<dim>96</dim>
					<dim>96</dim>
					<dim>3</dim>
					<dim>3</dim>
				</port>
			</output>
		</layer>
		<layer id="179" name="Conv_95/WithoutBiases" type="Convolution" version="opset1">
			<data dilations="1,1" output_padding="0,0" pads_begin="1,1" pads_end="1,1" strides="1,1"/>
			<input>
				<port id="0">
					<dim>1</dim>
					<dim>96</dim>
					<dim>80</dim>
					<dim>80</dim>
				</port>
				<port id="1">
					<dim>96</dim>
					<dim>96</dim>
					<dim>3</dim>
					<dim>3</dim>
				</port>
			</input>
			<output>
				<port id="2" precision="FP16">
					<dim>1</dim>
					<dim>96</dim>
					<dim>80</dim>
					<dim>80</dim>
				</port>
			</output>
		</layer>
		<layer id="180" name="Conv_95/Dims13227/copy_const" type="Const" version="opset1">
			<data element_type="f16" offset="1705764" shape="1,96,1,1" size="192"/>
			<output>
				<port id="1" precision="FP16">
					<dim>1</dim>
					<dim>96</dim>
					<dim>1</dim>
					<dim>1</dim>
				</port>
			</output>
		</layer>
		<layer id="181" name="Conv_95" type="Add" version="opset1">
			<input>
				<port id="0">
					<dim>1</dim>
					<dim>96</dim>
					<dim>80</dim>
					<dim>80</dim>
				</port>
				<port id="1">
					<dim>1</dim>
					<dim>96</dim>
					<dim>1</dim>
					<dim>1</dim>
				</port>
			</input>
			<output>
				<port id="2" precision="FP16">
					<dim>1</dim>
					<dim>96</dim>
					<dim>80</dim>
					<dim>80</dim>
				</port>
			</output>
		</layer>
		<layer id="182" name="LeakyRelu_96/Cast_146268_const" type="Const" version="opset1">
			<data element_type="f32" offset="10688" shape="1" size="4"/>
			<output>
				<port id="1" precision="FP32">
					<dim>1</dim>
				</port>
			</output>
		</layer>
		<layer id="183" name="LeakyRelu_96" type="PReLU" version="opset1">
			<input>
				<port id="0">
					<dim>1</dim>
					<dim>96</dim>
					<dim>80</dim>
					<dim>80</dim>
				</port>
				<port id="1">
					<dim>1</dim>
				</port>
			</input>
			<output>
				<port id="2" precision="FP16">
					<dim>1</dim>
					<dim>96</dim>
					<dim>80</dim>
					<dim>80</dim>
				</port>
			</output>
		</layer>
		<layer id="184" name="Add_97" type="Add" version="opset1">
			<input>
				<port id="0">
					<dim>1</dim>
					<dim>96</dim>
					<dim>80</dim>
					<dim>80</dim>
				</port>
				<port id="1">
					<dim>1</dim>
					<dim>96</dim>
					<dim>80</dim>
					<dim>80</dim>
				</port>
			</input>
			<output>
				<port id="2" precision="FP16">
					<dim>1</dim>
					<dim>96</dim>
					<dim>80</dim>
					<dim>80</dim>
				</port>
			</output>
		</layer>
		<layer id="185" name="onnx_initializer_node_model.4.cv3.weight/Output_0/Data__const" type="Const" version="opset1">
			<data element_type="f16" offset="1705956" shape="96,96,1,1" size="18432"/>
			<output>
				<port id="1" precision="FP16">
					<dim>96</dim>
					<dim>96</dim>
					<dim>1</dim>
					<dim>1</dim>
				</port>
			</output>
		</layer>
		<layer id="186" name="Conv_98" type="Convolution" version="opset1">
			<data dilations="1,1" output_padding="0,0" pads_begin="0,0" pads_end="0,0" strides="1,1"/>
			<input>
				<port id="0">
					<dim>1</dim>
					<dim>96</dim>
					<dim>80</dim>
					<dim>80</dim>
				</port>
				<port id="1">
					<dim>96</dim>
					<dim>96</dim>
					<dim>1</dim>
					<dim>1</dim>
				</port>
			</input>
			<output>
				<port id="2" precision="FP16">
					<dim>1</dim>
					<dim>96</dim>
					<dim>80</dim>
					<dim>80</dim>
				</port>
			</output>
		</layer>
		<layer id="187" name="onnx_initializer_node_model.4.cv2.weight/Output_0/Data__const" type="Const" version="opset1">
			<data element_type="f16" offset="1724388" shape="96,192,1,1" size="36864"/>
			<output>
				<port id="1" precision="FP16">
					<dim>96</dim>
					<dim>192</dim>
					<dim>1</dim>
					<dim>1</dim>
				</port>
			</output>
		</layer>
		<layer id="188" name="Conv_99" type="Convolution" version="opset1">
			<data dilations="1,1" output_padding="0,0" pads_begin="0,0" pads_end="0,0" strides="1,1"/>
			<input>
				<port id="0">
					<dim>1</dim>
					<dim>192</dim>
					<dim>80</dim>
					<dim>80</dim>
				</port>
				<port id="1">
					<dim>96</dim>
					<dim>192</dim>
					<dim>1</dim>
					<dim>1</dim>
				</port>
			</input>
			<output>
				<port id="2" precision="FP16">
					<dim>1</dim>
					<dim>96</dim>
					<dim>80</dim>
					<dim>80</dim>
				</port>
			</output>
		</layer>
		<layer id="189" name="Concat_100" type="Concat" version="opset1">
			<data axis="1"/>
			<input>
				<port id="0">
					<dim>1</dim>
					<dim>96</dim>
					<dim>80</dim>
					<dim>80</dim>
				</port>
				<port id="1">
					<dim>1</dim>
					<dim>96</dim>
					<dim>80</dim>
					<dim>80</dim>
				</port>
			</input>
			<output>
				<port id="2" precision="FP16">
					<dim>1</dim>
					<dim>192</dim>
					<dim>80</dim>
					<dim>80</dim>
				</port>
			</output>
		</layer>
		<layer id="190" name="data_mul_2046420468/copy_const" type="Const" version="opset1">
			<data element_type="f16" offset="1761252" shape="1,192,1,1" size="384"/>
			<output>
				<port id="1" precision="FP16">
					<dim>1</dim>
					<dim>192</dim>
					<dim>1</dim>
					<dim>1</dim>
				</port>
			</output>
		</layer>
		<layer id="191" name="BatchNormalization_101/mean/Fused_Mul_" type="Multiply" version="opset1">
			<input>
				<port id="0">
					<dim>1</dim>
					<dim>192</dim>
					<dim>80</dim>
					<dim>80</dim>
				</port>
				<port id="1">
					<dim>1</dim>
					<dim>192</dim>
					<dim>1</dim>
					<dim>1</dim>
				</port>
			</input>
			<output>
				<port id="2" precision="FP16">
					<dim>1</dim>
					<dim>192</dim>
					<dim>80</dim>
					<dim>80</dim>
				</port>
			</output>
		</layer>
		<layer id="192" name="data_add_2046520470/copy_const" type="Const" version="opset1">
			<data element_type="f16" offset="1761636" shape="1,192,1,1" size="384"/>
			<output>
				<port id="1" precision="FP16">
					<dim>1</dim>
					<dim>192</dim>
					<dim>1</dim>
					<dim>1</dim>
				</port>
			</output>
		</layer>
		<layer id="193" name="BatchNormalization_101/variance/Fused_Add_" type="Add" version="opset1">
			<input>
				<port id="0">
					<dim>1</dim>
					<dim>192</dim>
					<dim>80</dim>
					<dim>80</dim>
				</port>
				<port id="1">
					<dim>1</dim>
					<dim>192</dim>
					<dim>1</dim>
					<dim>1</dim>
				</port>
			</input>
			<output>
				<port id="2" precision="FP16">
					<dim>1</dim>
					<dim>192</dim>
					<dim>80</dim>
					<dim>80</dim>
				</port>
			</output>
		</layer>
		<layer id="194" name="LeakyRelu_102/Cast_146384_const" type="Const" version="opset1">
			<data element_type="f32" offset="10688" shape="1" size="4"/>
			<output>
				<port id="1" precision="FP32">
					<dim>1</dim>
				</port>
			</output>
		</layer>
		<layer id="195" name="LeakyRelu_102" type="PReLU" version="opset1">
			<input>
				<port id="0">
					<dim>1</dim>
					<dim>192</dim>
					<dim>80</dim>
					<dim>80</dim>
				</port>
				<port id="1">
					<dim>1</dim>
				</port>
			</input>
			<output>
				<port id="2" precision="FP16">
					<dim>1</dim>
					<dim>192</dim>
					<dim>80</dim>
					<dim>80</dim>
				</port>
			</output>
		</layer>
		<layer id="196" name="onnx_initializer_node_model.4.cv4.conv.weight/Output_0/Data__const" type="Const" version="opset1">
			<data element_type="f16" offset="1762020" shape="192,192,1,1" size="73728"/>
			<output>
				<port id="1" precision="FP16">
					<dim>192</dim>
					<dim>192</dim>
					<dim>1</dim>
					<dim>1</dim>
				</port>
			</output>
		</layer>
		<layer id="197" name="Conv_103/WithoutBiases" type="Convolution" version="opset1">
			<data dilations="1,1" output_padding="0,0" pads_begin="0,0" pads_end="0,0" strides="1,1"/>
			<input>
				<port id="0">
					<dim>1</dim>
					<dim>192</dim>
					<dim>80</dim>
					<dim>80</dim>
				</port>
				<port id="1">
					<dim>192</dim>
					<dim>192</dim>
					<dim>1</dim>
					<dim>1</dim>
				</port>
			</input>
			<output>
				<port id="2" precision="FP16">
					<dim>1</dim>
					<dim>192</dim>
					<dim>80</dim>
					<dim>80</dim>
				</port>
			</output>
		</layer>
		<layer id="198" name="Conv_103/Dims13275/copy_const" type="Const" version="opset1">
			<data element_type="f16" offset="1835748" shape="1,192,1,1" size="384"/>
			<output>
				<port id="1" precision="FP16">
					<dim>1</dim>
					<dim>192</dim>
					<dim>1</dim>
					<dim>1</dim>
				</port>
			</output>
		</layer>
		<layer id="199" name="Conv_103" type="Add" version="opset1">
			<input>
				<port id="0">
					<dim>1</dim>
					<dim>192</dim>
					<dim>80</dim>
					<dim>80</dim>
				</port>
				<port id="1">
					<dim>1</dim>
					<dim>192</dim>
					<dim>1</dim>
					<dim>1</dim>
				</port>
			</input>
			<output>
				<port id="2" precision="FP16">
					<dim>1</dim>
					<dim>192</dim>
					<dim>80</dim>
					<dim>80</dim>
				</port>
			</output>
		</layer>
		<layer id="200" name="LeakyRelu_104/Cast_146668_const" type="Const" version="opset1">
			<data element_type="f32" offset="10688" shape="1" size="4"/>
			<output>
				<port id="1" precision="FP32">
					<dim>1</dim>
				</port>
			</output>
		</layer>
		<layer id="201" name="LeakyRelu_104" type="PReLU" version="opset1">
			<input>
				<port id="0">
					<dim>1</dim>
					<dim>192</dim>
					<dim>80</dim>
					<dim>80</dim>
				</port>
				<port id="1">
					<dim>1</dim>
				</port>
			</input>
			<output>
				<port id="2" precision="FP16">
					<dim>1</dim>
					<dim>192</dim>
					<dim>80</dim>
					<dim>80</dim>
				</port>
			</output>
		</layer>
		<layer id="202" name="onnx_initializer_node_model.5.conv.weight/Output_0/Data__const" type="Const" version="opset1">
			<data element_type="f16" offset="1836132" shape="384,192,3,3" size="1327104"/>
			<output>
				<port id="1" precision="FP16">
					<dim>384</dim>
					<dim>192</dim>
					<dim>3</dim>
					<dim>3</dim>
				</port>
			</output>
		</layer>
		<layer id="203" name="Conv_105/WithoutBiases" type="Convolution" version="opset1">
			<data dilations="1,1" output_padding="0,0" pads_begin="1,1" pads_end="1,1" strides="2,2"/>
			<input>
				<port id="0">
					<dim>1</dim>
					<dim>192</dim>
					<dim>80</dim>
					<dim>80</dim>
				</port>
				<port id="1">
					<dim>384</dim>
					<dim>192</dim>
					<dim>3</dim>
					<dim>3</dim>
				</port>
			</input>
			<output>
				<port id="2" precision="FP16">
					<dim>1</dim>
					<dim>384</dim>
					<dim>40</dim>
					<dim>40</dim>
				</port>
			</output>
		</layer>
		<layer id="204" name="Conv_105/Dims12975/copy_const" type="Const" version="opset1">
			<data element_type="f16" offset="3163236" shape="1,384,1,1" size="768"/>
			<output>
				<port id="1" precision="FP16">
					<dim>1</dim>
					<dim>384</dim>
					<dim>1</dim>
					<dim>1</dim>
				</port>
			</output>
		</layer>
		<layer id="205" name="Conv_105" type="Add" version="opset1">
			<input>
				<port id="0">
					<dim>1</dim>
					<dim>384</dim>
					<dim>40</dim>
					<dim>40</dim>
				</port>
				<port id="1">
					<dim>1</dim>
					<dim>384</dim>
					<dim>1</dim>
					<dim>1</dim>
				</port>
			</input>
			<output>
				<port id="2" precision="FP16">
					<dim>1</dim>
					<dim>384</dim>
					<dim>40</dim>
					<dim>40</dim>
				</port>
			</output>
		</layer>
		<layer id="206" name="LeakyRelu_106/Cast_146372_const" type="Const" version="opset1">
			<data element_type="f32" offset="10688" shape="1" size="4"/>
			<output>
				<port id="1" precision="FP32">
					<dim>1</dim>
				</port>
			</output>
		</layer>
		<layer id="207" name="LeakyRelu_106" type="PReLU" version="opset1">
			<input>
				<port id="0">
					<dim>1</dim>
					<dim>384</dim>
					<dim>40</dim>
					<dim>40</dim>
				</port>
				<port id="1">
					<dim>1</dim>
				</port>
			</input>
			<output>
				<port id="2" precision="FP16">
					<dim>1</dim>
					<dim>384</dim>
					<dim>40</dim>
					<dim>40</dim>
				</port>
			</output>
		</layer>
		<layer id="208" name="onnx_initializer_node_model.6.cv1.conv.weight/Output_0/Data__const" type="Const" version="opset1">
			<data element_type="f16" offset="3164004" shape="192,384,1,1" size="147456"/>
			<output>
				<port id="1" precision="FP16">
					<dim>192</dim>
					<dim>384</dim>
					<dim>1</dim>
					<dim>1</dim>
				</port>
			</output>
		</layer>
		<layer id="209" name="Conv_107/WithoutBiases" type="Convolution" version="opset1">
			<data dilations="1,1" output_padding="0,0" pads_begin="0,0" pads_end="0,0" strides="1,1"/>
			<input>
				<port id="0">
					<dim>1</dim>
					<dim>384</dim>
					<dim>40</dim>
					<dim>40</dim>
				</port>
				<port id="1">
					<dim>192</dim>
					<dim>384</dim>
					<dim>1</dim>
					<dim>1</dim>
				</port>
			</input>
			<output>
				<port id="2" precision="FP16">
					<dim>1</dim>
					<dim>192</dim>
					<dim>40</dim>
					<dim>40</dim>
				</port>
			</output>
		</layer>
		<layer id="210" name="Conv_107/Dims13173/copy_const" type="Const" version="opset1">
			<data element_type="f16" offset="3311460" shape="1,192,1,1" size="384"/>
			<output>
				<port id="1" precision="FP16">
					<dim>1</dim>
					<dim>192</dim>
					<dim>1</dim>
					<dim>1</dim>
				</port>
			</output>
		</layer>
		<layer id="211" name="Conv_107" type="Add" version="opset1">
			<input>
				<port id="0">
					<dim>1</dim>
					<dim>192</dim>
					<dim>40</dim>
					<dim>40</dim>
				</port>
				<port id="1">
					<dim>1</dim>
					<dim>192</dim>
					<dim>1</dim>
					<dim>1</dim>
				</port>
			</input>
			<output>
				<port id="2" precision="FP16">
					<dim>1</dim>
					<dim>192</dim>
					<dim>40</dim>
					<dim>40</dim>
				</port>
			</output>
		</layer>
		<layer id="212" name="LeakyRelu_108/Cast_146620_const" type="Const" version="opset1">
			<data element_type="f32" offset="10688" shape="1" size="4"/>
			<output>
				<port id="1" precision="FP32">
					<dim>1</dim>
				</port>
			</output>
		</layer>
		<layer id="213" name="LeakyRelu_108" type="PReLU" version="opset1">
			<input>
				<port id="0">
					<dim>1</dim>
					<dim>192</dim>
					<dim>40</dim>
					<dim>40</dim>
				</port>
				<port id="1">
					<dim>1</dim>
				</port>
			</input>
			<output>
				<port id="2" precision="FP16">
					<dim>1</dim>
					<dim>192</dim>
					<dim>40</dim>
					<dim>40</dim>
				</port>
			</output>
		</layer>
		<layer id="214" name="onnx_initializer_node_model.6.m.0.cv1.conv.weight/Output_0/Data__const" type="Const" version="opset1">
			<data element_type="f16" offset="3311844" shape="192,192,1,1" size="73728"/>
			<output>
				<port id="1" precision="FP16">
					<dim>192</dim>
					<dim>192</dim>
					<dim>1</dim>
					<dim>1</dim>
				</port>
			</output>
		</layer>
		<layer id="215" name="Conv_109/WithoutBiases" type="Convolution" version="opset1">
			<data dilations="1,1" output_padding="0,0" pads_begin="0,0" pads_end="0,0" strides="1,1"/>
			<input>
				<port id="0">
					<dim>1</dim>
					<dim>192</dim>
					<dim>40</dim>
					<dim>40</dim>
				</port>
				<port id="1">
					<dim>192</dim>
					<dim>192</dim>
					<dim>1</dim>
					<dim>1</dim>
				</port>
			</input>
			<output>
				<port id="2" precision="FP16">
					<dim>1</dim>
					<dim>192</dim>
					<dim>40</dim>
					<dim>40</dim>
				</port>
			</output>
		</layer>
		<layer id="216" name="Conv_109/Dims13137/copy_const" type="Const" version="opset1">
			<data element_type="f16" offset="3385572" shape="1,192,1,1" size="384"/>
			<output>
				<port id="1" precision="FP16">
					<dim>1</dim>
					<dim>192</dim>
					<dim>1</dim>
					<dim>1</dim>
				</port>
			</output>
		</layer>
		<layer id="217" name="Conv_109" type="Add" version="opset1">
			<input>
				<port id="0">
					<dim>1</dim>
					<dim>192</dim>
					<dim>40</dim>
					<dim>40</dim>
				</port>
				<port id="1">
					<dim>1</dim>
					<dim>192</dim>
					<dim>1</dim>
					<dim>1</dim>
				</port>
			</input>
			<output>
				<port id="2" precision="FP16">
					<dim>1</dim>
					<dim>192</dim>
					<dim>40</dim>
					<dim>40</dim>
				</port>
			</output>
		</layer>
		<layer id="218" name="LeakyRelu_110/Cast_146614_const" type="Const" version="opset1">
			<data element_type="f32" offset="10688" shape="1" size="4"/>
			<output>
				<port id="1" precision="FP32">
					<dim>1</dim>
				</port>
			</output>
		</layer>
		<layer id="219" name="LeakyRelu_110" type="PReLU" version="opset1">
			<input>
				<port id="0">
					<dim>1</dim>
					<dim>192</dim>
					<dim>40</dim>
					<dim>40</dim>
				</port>
				<port id="1">
					<dim>1</dim>
				</port>
			</input>
			<output>
				<port id="2" precision="FP16">
					<dim>1</dim>
					<dim>192</dim>
					<dim>40</dim>
					<dim>40</dim>
				</port>
			</output>
		</layer>
		<layer id="220" name="onnx_initializer_node_model.6.m.0.cv2.conv.weight/Output_0/Data__const" type="Const" version="opset1">
			<data element_type="f16" offset="3385956" shape="192,192,3,3" size="663552"/>
			<output>
				<port id="1" precision="FP16">
					<dim>192</dim>
					<dim>192</dim>
					<dim>3</dim>
					<dim>3</dim>
				</port>
			</output>
		</layer>
		<layer id="221" name="Conv_111/WithoutBiases" type="Convolution" version="opset1">
			<data dilations="1,1" output_padding="0,0" pads_begin="1,1" pads_end="1,1" strides="1,1"/>
			<input>
				<port id="0">
					<dim>1</dim>
					<dim>192</dim>
					<dim>40</dim>
					<dim>40</dim>
				</port>
				<port id="1">
					<dim>192</dim>
					<dim>192</dim>
					<dim>3</dim>
					<dim>3</dim>
				</port>
			</input>
			<output>
				<port id="2" precision="FP16">
					<dim>1</dim>
					<dim>192</dim>
					<dim>40</dim>
					<dim>40</dim>
				</port>
			</output>
		</layer>
		<layer id="222" name="Conv_111/Dims12981/copy_const" type="Const" version="opset1">
			<data element_type="f16" offset="4049508" shape="1,192,1,1" size="384"/>
			<output>
				<port id="1" precision="FP16">
					<dim>1</dim>
					<dim>192</dim>
					<dim>1</dim>
					<dim>1</dim>
				</port>
			</output>
		</layer>
		<layer id="223" name="Conv_111" type="Add" version="opset1">
			<input>
				<port id="0">
					<dim>1</dim>
					<dim>192</dim>
					<dim>40</dim>
					<dim>40</dim>
				</port>
				<port id="1">
					<dim>1</dim>
					<dim>192</dim>
					<dim>1</dim>
					<dim>1</dim>
				</port>
			</input>
			<output>
				<port id="2" precision="FP16">
					<dim>1</dim>
					<dim>192</dim>
					<dim>40</dim>
					<dim>40</dim>
				</port>
			</output>
		</layer>
		<layer id="224" name="LeakyRelu_112/Cast_146124_const" type="Const" version="opset1">
			<data element_type="f32" offset="10688" shape="1" size="4"/>
			<output>
				<port id="1" precision="FP32">
					<dim>1</dim>
				</port>
			</output>
		</layer>
		<layer id="225" name="LeakyRelu_112" type="PReLU" version="opset1">
			<input>
				<port id="0">
					<dim>1</dim>
					<dim>192</dim>
					<dim>40</dim>
					<dim>40</dim>
				</port>
				<port id="1">
					<dim>1</dim>
				</port>
			</input>
			<output>
				<port id="2" precision="FP16">
					<dim>1</dim>
					<dim>192</dim>
					<dim>40</dim>
					<dim>40</dim>
				</port>
			</output>
		</layer>
		<layer id="226" name="Add_113" type="Add" version="opset1">
			<input>
				<port id="0">
					<dim>1</dim>
					<dim>192</dim>
					<dim>40</dim>
					<dim>40</dim>
				</port>
				<port id="1">
					<dim>1</dim>
					<dim>192</dim>
					<dim>40</dim>
					<dim>40</dim>
				</port>
			</input>
			<output>
				<port id="2" precision="FP16">
					<dim>1</dim>
					<dim>192</dim>
					<dim>40</dim>
					<dim>40</dim>
				</port>
			</output>
		</layer>
		<layer id="227" name="onnx_initializer_node_model.6.m.1.cv1.conv.weight/Output_0/Data__const" type="Const" version="opset1">
			<data element_type="f16" offset="4049892" shape="192,192,1,1" size="73728"/>
			<output>
				<port id="1" precision="FP16">
					<dim>192</dim>
					<dim>192</dim>
					<dim>1</dim>
					<dim>1</dim>
				</port>
			</output>
		</layer>
		<layer id="228" name="Conv_114/WithoutBiases" type="Convolution" version="opset1">
			<data dilations="1,1" output_padding="0,0" pads_begin="0,0" pads_end="0,0" strides="1,1"/>
			<input>
				<port id="0">
					<dim>1</dim>
					<dim>192</dim>
					<dim>40</dim>
					<dim>40</dim>
				</port>
				<port id="1">
					<dim>192</dim>
					<dim>192</dim>
					<dim>1</dim>
					<dim>1</dim>
				</port>
			</input>
			<output>
				<port id="2" precision="FP16">
					<dim>1</dim>
					<dim>192</dim>
					<dim>40</dim>
					<dim>40</dim>
				</port>
			</output>
		</layer>
		<layer id="229" name="Conv_114/Dims13245/copy_const" type="Const" version="opset1">
			<data element_type="f16" offset="4123620" shape="1,192,1,1" size="384"/>
			<output>
				<port id="1" precision="FP16">
					<dim>1</dim>
					<dim>192</dim>
					<dim>1</dim>
					<dim>1</dim>
				</port>
			</output>
		</layer>
		<layer id="230" name="Conv_114" type="Add" version="opset1">
			<input>
				<port id="0">
					<dim>1</dim>
					<dim>192</dim>
					<dim>40</dim>
					<dim>40</dim>
				</port>
				<port id="1">
					<dim>1</dim>
					<dim>192</dim>
					<dim>1</dim>
					<dim>1</dim>
				</port>
			</input>
			<output>
				<port id="2" precision="FP16">
					<dim>1</dim>
					<dim>192</dim>
					<dim>40</dim>
					<dim>40</dim>
				</port>
			</output>
		</layer>
		<layer id="231" name="LeakyRelu_115/Cast_146252_const" type="Const" version="opset1">
			<data element_type="f32" offset="10688" shape="1" size="4"/>
			<output>
				<port id="1" precision="FP32">
					<dim>1</dim>
				</port>
			</output>
		</layer>
		<layer id="232" name="LeakyRelu_115" type="PReLU" version="opset1">
			<input>
				<port id="0">
					<dim>1</dim>
					<dim>192</dim>
					<dim>40</dim>
					<dim>40</dim>
				</port>
				<port id="1">
					<dim>1</dim>
				</port>
			</input>
			<output>
				<port id="2" precision="FP16">
					<dim>1</dim>
					<dim>192</dim>
					<dim>40</dim>
					<dim>40</dim>
				</port>
			</output>
		</layer>
		<layer id="233" name="onnx_initializer_node_model.6.m.1.cv2.conv.weight/Output_0/Data__const" type="Const" version="opset1">
			<data element_type="f16" offset="4124004" shape="192,192,3,3" size="663552"/>
			<output>
				<port id="1" precision="FP16">
					<dim>192</dim>
					<dim>192</dim>
					<dim>3</dim>
					<dim>3</dim>
				</port>
			</output>
		</layer>
		<layer id="234" name="Conv_116/WithoutBiases" type="Convolution" version="opset1">
			<data dilations="1,1" output_padding="0,0" pads_begin="1,1" pads_end="1,1" strides="1,1"/>
			<input>
				<port id="0">
					<dim>1</dim>
					<dim>192</dim>
					<dim>40</dim>
					<dim>40</dim>
				</port>
				<port id="1">
					<dim>192</dim>
					<dim>192</dim>
					<dim>3</dim>
					<dim>3</dim>
				</port>
			</input>
			<output>
				<port id="2" precision="FP16">
					<dim>1</dim>
					<dim>192</dim>
					<dim>40</dim>
					<dim>40</dim>
				</port>
			</output>
		</layer>
		<layer id="235" name="Conv_116/Dims13377/copy_const" type="Const" version="opset1">
			<data element_type="f16" offset="4787556" shape="1,192,1,1" size="384"/>
			<output>
				<port id="1" precision="FP16">
					<dim>1</dim>
					<dim>192</dim>
					<dim>1</dim>
					<dim>1</dim>
				</port>
			</output>
		</layer>
		<layer id="236" name="Conv_116" type="Add" version="opset1">
			<input>
				<port id="0">
					<dim>1</dim>
					<dim>192</dim>
					<dim>40</dim>
					<dim>40</dim>
				</port>
				<port id="1">
					<dim>1</dim>
					<dim>192</dim>
					<dim>1</dim>
					<dim>1</dim>
				</port>
			</input>
			<output>
				<port id="2" precision="FP16">
					<dim>1</dim>
					<dim>192</dim>
					<dim>40</dim>
					<dim>40</dim>
				</port>
			</output>
		</layer>
		<layer id="237" name="LeakyRelu_117/Cast_146290_const" type="Const" version="opset1">
			<data element_type="f32" offset="10688" shape="1" size="4"/>
			<output>
				<port id="1" precision="FP32">
					<dim>1</dim>
				</port>
			</output>
		</layer>
		<layer id="238" name="LeakyRelu_117" type="PReLU" version="opset1">
			<input>
				<port id="0">
					<dim>1</dim>
					<dim>192</dim>
					<dim>40</dim>
					<dim>40</dim>
				</port>
				<port id="1">
					<dim>1</dim>
				</port>
			</input>
			<output>
				<port id="2" precision="FP16">
					<dim>1</dim>
					<dim>192</dim>
					<dim>40</dim>
					<dim>40</dim>
				</port>
			</output>
		</layer>
		<layer id="239" name="Add_118" type="Add" version="opset1">
			<input>
				<port id="0">
					<dim>1</dim>
					<dim>192</dim>
					<dim>40</dim>
					<dim>40</dim>
				</port>
				<port id="1">
					<dim>1</dim>
					<dim>192</dim>
					<dim>40</dim>
					<dim>40</dim>
				</port>
			</input>
			<output>
				<port id="2" precision="FP16">
					<dim>1</dim>
					<dim>192</dim>
					<dim>40</dim>
					<dim>40</dim>
				</port>
			</output>
		</layer>
		<layer id="240" name="onnx_initializer_node_model.6.m.2.cv1.conv.weight/Output_0/Data__const" type="Const" version="opset1">
			<data element_type="f16" offset="4787940" shape="192,192,1,1" size="73728"/>
			<output>
				<port id="1" precision="FP16">
					<dim>192</dim>
					<dim>192</dim>
					<dim>1</dim>
					<dim>1</dim>
				</port>
			</output>
		</layer>
		<layer id="241" name="Conv_119/WithoutBiases" type="Convolution" version="opset1">
			<data dilations="1,1" output_padding="0,0" pads_begin="0,0" pads_end="0,0" strides="1,1"/>
			<input>
				<port id="0">
					<dim>1</dim>
					<dim>192</dim>
					<dim>40</dim>
					<dim>40</dim>
				</port>
				<port id="1">
					<dim>192</dim>
					<dim>192</dim>
					<dim>1</dim>
					<dim>1</dim>
				</port>
			</input>
			<output>
				<port id="2" precision="FP16">
					<dim>1</dim>
					<dim>192</dim>
					<dim>40</dim>
					<dim>40</dim>
				</port>
			</output>
		</layer>
		<layer id="242" name="Conv_119/Dims13317/copy_const" type="Const" version="opset1">
			<data element_type="f16" offset="4861668" shape="1,192,1,1" size="384"/>
			<output>
				<port id="1" precision="FP16">
					<dim>1</dim>
					<dim>192</dim>
					<dim>1</dim>
					<dim>1</dim>
				</port>
			</output>
		</layer>
		<layer id="243" name="Conv_119" type="Add" version="opset1">
			<input>
				<port id="0">
					<dim>1</dim>
					<dim>192</dim>
					<dim>40</dim>
					<dim>40</dim>
				</port>
				<port id="1">
					<dim>1</dim>
					<dim>192</dim>
					<dim>1</dim>
					<dim>1</dim>
				</port>
			</input>
			<output>
				<port id="2" precision="FP16">
					<dim>1</dim>
					<dim>192</dim>
					<dim>40</dim>
					<dim>40</dim>
				</port>
			</output>
		</layer>
		<layer id="244" name="LeakyRelu_120/Cast_146140_const" type="Const" version="opset1">
			<data element_type="f32" offset="10688" shape="1" size="4"/>
			<output>
				<port id="1" precision="FP32">
					<dim>1</dim>
				</port>
			</output>
		</layer>
		<layer id="245" name="LeakyRelu_120" type="PReLU" version="opset1">
			<input>
				<port id="0">
					<dim>1</dim>
					<dim>192</dim>
					<dim>40</dim>
					<dim>40</dim>
				</port>
				<port id="1">
					<dim>1</dim>
				</port>
			</input>
			<output>
				<port id="2" precision="FP16">
					<dim>1</dim>
					<dim>192</dim>
					<dim>40</dim>
					<dim>40</dim>
				</port>
			</output>
		</layer>
		<layer id="246" name="onnx_initializer_node_model.6.m.2.cv2.conv.weight/Output_0/Data__const" type="Const" version="opset1">
			<data element_type="f16" offset="4862052" shape="192,192,3,3" size="663552"/>
			<output>
				<port id="1" precision="FP16">
					<dim>192</dim>
					<dim>192</dim>
					<dim>3</dim>
					<dim>3</dim>
				</port>
			</output>
		</layer>
		<layer id="247" name="Conv_121/WithoutBiases" type="Convolution" version="opset1">
			<data dilations="1,1" output_padding="0,0" pads_begin="1,1" pads_end="1,1" strides="1,1"/>
			<input>
				<port id="0">
					<dim>1</dim>
					<dim>192</dim>
					<dim>40</dim>
					<dim>40</dim>
				</port>
				<port id="1">
					<dim>192</dim>
					<dim>192</dim>
					<dim>3</dim>
					<dim>3</dim>
				</port>
			</input>
			<output>
				<port id="2" precision="FP16">
					<dim>1</dim>
					<dim>192</dim>
					<dim>40</dim>
					<dim>40</dim>
				</port>
			</output>
		</layer>
		<layer id="248" name="Conv_121/Dims13125/copy_const" type="Const" version="opset1">
			<data element_type="f16" offset="5525604" shape="1,192,1,1" size="384"/>
			<output>
				<port id="1" precision="FP16">
					<dim>1</dim>
					<dim>192</dim>
					<dim>1</dim>
					<dim>1</dim>
				</port>
			</output>
		</layer>
		<layer id="249" name="Conv_121" type="Add" version="opset1">
			<input>
				<port id="0">
					<dim>1</dim>
					<dim>192</dim>
					<dim>40</dim>
					<dim>40</dim>
				</port>
				<port id="1">
					<dim>1</dim>
					<dim>192</dim>
					<dim>1</dim>
					<dim>1</dim>
				</port>
			</input>
			<output>
				<port id="2" precision="FP16">
					<dim>1</dim>
					<dim>192</dim>
					<dim>40</dim>
					<dim>40</dim>
				</port>
			</output>
		</layer>
		<layer id="250" name="LeakyRelu_122/Cast_146580_const" type="Const" version="opset1">
			<data element_type="f32" offset="10688" shape="1" size="4"/>
			<output>
				<port id="1" precision="FP32">
					<dim>1</dim>
				</port>
			</output>
		</layer>
		<layer id="251" name="LeakyRelu_122" type="PReLU" version="opset1">
			<input>
				<port id="0">
					<dim>1</dim>
					<dim>192</dim>
					<dim>40</dim>
					<dim>40</dim>
				</port>
				<port id="1">
					<dim>1</dim>
				</port>
			</input>
			<output>
				<port id="2" precision="FP16">
					<dim>1</dim>
					<dim>192</dim>
					<dim>40</dim>
					<dim>40</dim>
				</port>
			</output>
		</layer>
		<layer id="252" name="Add_123" type="Add" version="opset1">
			<input>
				<port id="0">
					<dim>1</dim>
					<dim>192</dim>
					<dim>40</dim>
					<dim>40</dim>
				</port>
				<port id="1">
					<dim>1</dim>
					<dim>192</dim>
					<dim>40</dim>
					<dim>40</dim>
				</port>
			</input>
			<output>
				<port id="2" precision="FP16">
					<dim>1</dim>
					<dim>192</dim>
					<dim>40</dim>
					<dim>40</dim>
				</port>
			</output>
		</layer>
		<layer id="253" name="onnx_initializer_node_model.6.m.3.cv1.conv.weight/Output_0/Data__const" type="Const" version="opset1">
			<data element_type="f16" offset="5525988" shape="192,192,1,1" size="73728"/>
			<output>
				<port id="1" precision="FP16">
					<dim>192</dim>
					<dim>192</dim>
					<dim>1</dim>
					<dim>1</dim>
				</port>
			</output>
		</layer>
		<layer id="254" name="Conv_124/WithoutBiases" type="Convolution" version="opset1">
			<data dilations="1,1" output_padding="0,0" pads_begin="0,0" pads_end="0,0" strides="1,1"/>
			<input>
				<port id="0">
					<dim>1</dim>
					<dim>192</dim>
					<dim>40</dim>
					<dim>40</dim>
				</port>
				<port id="1">
					<dim>192</dim>
					<dim>192</dim>
					<dim>1</dim>
					<dim>1</dim>
				</port>
			</input>
			<output>
				<port id="2" precision="FP16">
					<dim>1</dim>
					<dim>192</dim>
					<dim>40</dim>
					<dim>40</dim>
				</port>
			</output>
		</layer>
		<layer id="255" name="Conv_124/Dims13095/copy_const" type="Const" version="opset1">
			<data element_type="f16" offset="5599716" shape="1,192,1,1" size="384"/>
			<output>
				<port id="1" precision="FP16">
					<dim>1</dim>
					<dim>192</dim>
					<dim>1</dim>
					<dim>1</dim>
				</port>
			</output>
		</layer>
		<layer id="256" name="Conv_124" type="Add" version="opset1">
			<input>
				<port id="0">
					<dim>1</dim>
					<dim>192</dim>
					<dim>40</dim>
					<dim>40</dim>
				</port>
				<port id="1">
					<dim>1</dim>
					<dim>192</dim>
					<dim>1</dim>
					<dim>1</dim>
				</port>
			</input>
			<output>
				<port id="2" precision="FP16">
					<dim>1</dim>
					<dim>192</dim>
					<dim>40</dim>
					<dim>40</dim>
				</port>
			</output>
		</layer>
		<layer id="257" name="LeakyRelu_125/Cast_146672_const" type="Const" version="opset1">
			<data element_type="f32" offset="10688" shape="1" size="4"/>
			<output>
				<port id="1" precision="FP32">
					<dim>1</dim>
				</port>
			</output>
		</layer>
		<layer id="258" name="LeakyRelu_125" type="PReLU" version="opset1">
			<input>
				<port id="0">
					<dim>1</dim>
					<dim>192</dim>
					<dim>40</dim>
					<dim>40</dim>
				</port>
				<port id="1">
					<dim>1</dim>
				</port>
			</input>
			<output>
				<port id="2" precision="FP16">
					<dim>1</dim>
					<dim>192</dim>
					<dim>40</dim>
					<dim>40</dim>
				</port>
			</output>
		</layer>
		<layer id="259" name="onnx_initializer_node_model.6.m.3.cv2.conv.weight/Output_0/Data__const" type="Const" version="opset1">
			<data element_type="f16" offset="5600100" shape="192,192,3,3" size="663552"/>
			<output>
				<port id="1" precision="FP16">
					<dim>192</dim>
					<dim>192</dim>
					<dim>3</dim>
					<dim>3</dim>
				</port>
			</output>
		</layer>
		<layer id="260" name="Conv_126/WithoutBiases" type="Convolution" version="opset1">
			<data dilations="1,1" output_padding="0,0" pads_begin="1,1" pads_end="1,1" strides="1,1"/>
			<input>
				<port id="0">
					<dim>1</dim>
					<dim>192</dim>
					<dim>40</dim>
					<dim>40</dim>
				</port>
				<port id="1">
					<dim>192</dim>
					<dim>192</dim>
					<dim>3</dim>
					<dim>3</dim>
				</port>
			</input>
			<output>
				<port id="2" precision="FP16">
					<dim>1</dim>
					<dim>192</dim>
					<dim>40</dim>
					<dim>40</dim>
				</port>
			</output>
		</layer>
		<layer id="261" name="Conv_126/Dims13119/copy_const" type="Const" version="opset1">
			<data element_type="f16" offset="6263652" shape="1,192,1,1" size="384"/>
			<output>
				<port id="1" precision="FP16">
					<dim>1</dim>
					<dim>192</dim>
					<dim>1</dim>
					<dim>1</dim>
				</port>
			</output>
		</layer>
		<layer id="262" name="Conv_126" type="Add" version="opset1">
			<input>
				<port id="0">
					<dim>1</dim>
					<dim>192</dim>
					<dim>40</dim>
					<dim>40</dim>
				</port>
				<port id="1">
					<dim>1</dim>
					<dim>192</dim>
					<dim>1</dim>
					<dim>1</dim>
				</port>
			</input>
			<output>
				<port id="2" precision="FP16">
					<dim>1</dim>
					<dim>192</dim>
					<dim>40</dim>
					<dim>40</dim>
				</port>
			</output>
		</layer>
		<layer id="263" name="LeakyRelu_127/Cast_146090_const" type="Const" version="opset1">
			<data element_type="f32" offset="10688" shape="1" size="4"/>
			<output>
				<port id="1" precision="FP32">
					<dim>1</dim>
				</port>
			</output>
		</layer>
		<layer id="264" name="LeakyRelu_127" type="PReLU" version="opset1">
			<input>
				<port id="0">
					<dim>1</dim>
					<dim>192</dim>
					<dim>40</dim>
					<dim>40</dim>
				</port>
				<port id="1">
					<dim>1</dim>
				</port>
			</input>
			<output>
				<port id="2" precision="FP16">
					<dim>1</dim>
					<dim>192</dim>
					<dim>40</dim>
					<dim>40</dim>
				</port>
			</output>
		</layer>
		<layer id="265" name="Add_128" type="Add" version="opset1">
			<input>
				<port id="0">
					<dim>1</dim>
					<dim>192</dim>
					<dim>40</dim>
					<dim>40</dim>
				</port>
				<port id="1">
					<dim>1</dim>
					<dim>192</dim>
					<dim>40</dim>
					<dim>40</dim>
				</port>
			</input>
			<output>
				<port id="2" precision="FP16">
					<dim>1</dim>
					<dim>192</dim>
					<dim>40</dim>
					<dim>40</dim>
				</port>
			</output>
		</layer>
		<layer id="266" name="onnx_initializer_node_model.6.m.4.cv1.conv.weight/Output_0/Data__const" type="Const" version="opset1">
			<data element_type="f16" offset="6264036" shape="192,192,1,1" size="73728"/>
			<output>
				<port id="1" precision="FP16">
					<dim>192</dim>
					<dim>192</dim>
					<dim>1</dim>
					<dim>1</dim>
				</port>
			</output>
		</layer>
		<layer id="267" name="Conv_129/WithoutBiases" type="Convolution" version="opset1">
			<data dilations="1,1" output_padding="0,0" pads_begin="0,0" pads_end="0,0" strides="1,1"/>
			<input>
				<port id="0">
					<dim>1</dim>
					<dim>192</dim>
					<dim>40</dim>
					<dim>40</dim>
				</port>
				<port id="1">
					<dim>192</dim>
					<dim>192</dim>
					<dim>1</dim>
					<dim>1</dim>
				</port>
			</input>
			<output>
				<port id="2" precision="FP16">
					<dim>1</dim>
					<dim>192</dim>
					<dim>40</dim>
					<dim>40</dim>
				</port>
			</output>
		</layer>
		<layer id="268" name="Conv_129/Dims13389/copy_const" type="Const" version="opset1">
			<data element_type="f16" offset="6337764" shape="1,192,1,1" size="384"/>
			<output>
				<port id="1" precision="FP16">
					<dim>1</dim>
					<dim>192</dim>
					<dim>1</dim>
					<dim>1</dim>
				</port>
			</output>
		</layer>
		<layer id="269" name="Conv_129" type="Add" version="opset1">
			<input>
				<port id="0">
					<dim>1</dim>
					<dim>192</dim>
					<dim>40</dim>
					<dim>40</dim>
				</port>
				<port id="1">
					<dim>1</dim>
					<dim>192</dim>
					<dim>1</dim>
					<dim>1</dim>
				</port>
			</input>
			<output>
				<port id="2" precision="FP16">
					<dim>1</dim>
					<dim>192</dim>
					<dim>40</dim>
					<dim>40</dim>
				</port>
			</output>
		</layer>
		<layer id="270" name="LeakyRelu_130/Cast_146568_const" type="Const" version="opset1">
			<data element_type="f32" offset="10688" shape="1" size="4"/>
			<output>
				<port id="1" precision="FP32">
					<dim>1</dim>
				</port>
			</output>
		</layer>
		<layer id="271" name="LeakyRelu_130" type="PReLU" version="opset1">
			<input>
				<port id="0">
					<dim>1</dim>
					<dim>192</dim>
					<dim>40</dim>
					<dim>40</dim>
				</port>
				<port id="1">
					<dim>1</dim>
				</port>
			</input>
			<output>
				<port id="2" precision="FP16">
					<dim>1</dim>
					<dim>192</dim>
					<dim>40</dim>
					<dim>40</dim>
				</port>
			</output>
		</layer>
		<layer id="272" name="onnx_initializer_node_model.6.m.4.cv2.conv.weight/Output_0/Data__const" type="Const" version="opset1">
			<data element_type="f16" offset="6338148" shape="192,192,3,3" size="663552"/>
			<output>
				<port id="1" precision="FP16">
					<dim>192</dim>
					<dim>192</dim>
					<dim>3</dim>
					<dim>3</dim>
				</port>
			</output>
		</layer>
		<layer id="273" name="Conv_131/WithoutBiases" type="Convolution" version="opset1">
			<data dilations="1,1" output_padding="0,0" pads_begin="1,1" pads_end="1,1" strides="1,1"/>
			<input>
				<port id="0">
					<dim>1</dim>
					<dim>192</dim>
					<dim>40</dim>
					<dim>40</dim>
				</port>
				<port id="1">
					<dim>192</dim>
					<dim>192</dim>
					<dim>3</dim>
					<dim>3</dim>
				</port>
			</input>
			<output>
				<port id="2" precision="FP16">
					<dim>1</dim>
					<dim>192</dim>
					<dim>40</dim>
					<dim>40</dim>
				</port>
			</output>
		</layer>
		<layer id="274" name="Conv_131/Dims13341/copy_const" type="Const" version="opset1">
			<data element_type="f16" offset="7001700" shape="1,192,1,1" size="384"/>
			<output>
				<port id="1" precision="FP16">
					<dim>1</dim>
					<dim>192</dim>
					<dim>1</dim>
					<dim>1</dim>
				</port>
			</output>
		</layer>
		<layer id="275" name="Conv_131" type="Add" version="opset1">
			<input>
				<port id="0">
					<dim>1</dim>
					<dim>192</dim>
					<dim>40</dim>
					<dim>40</dim>
				</port>
				<port id="1">
					<dim>1</dim>
					<dim>192</dim>
					<dim>1</dim>
					<dim>1</dim>
				</port>
			</input>
			<output>
				<port id="2" precision="FP16">
					<dim>1</dim>
					<dim>192</dim>
					<dim>40</dim>
					<dim>40</dim>
				</port>
			</output>
		</layer>
		<layer id="276" name="LeakyRelu_132/Cast_146520_const" type="Const" version="opset1">
			<data element_type="f32" offset="10688" shape="1" size="4"/>
			<output>
				<port id="1" precision="FP32">
					<dim>1</dim>
				</port>
			</output>
		</layer>
		<layer id="277" name="LeakyRelu_132" type="PReLU" version="opset1">
			<input>
				<port id="0">
					<dim>1</dim>
					<dim>192</dim>
					<dim>40</dim>
					<dim>40</dim>
				</port>
				<port id="1">
					<dim>1</dim>
				</port>
			</input>
			<output>
				<port id="2" precision="FP16">
					<dim>1</dim>
					<dim>192</dim>
					<dim>40</dim>
					<dim>40</dim>
				</port>
			</output>
		</layer>
		<layer id="278" name="Add_133" type="Add" version="opset1">
			<input>
				<port id="0">
					<dim>1</dim>
					<dim>192</dim>
					<dim>40</dim>
					<dim>40</dim>
				</port>
				<port id="1">
					<dim>1</dim>
					<dim>192</dim>
					<dim>40</dim>
					<dim>40</dim>
				</port>
			</input>
			<output>
				<port id="2" precision="FP16">
					<dim>1</dim>
					<dim>192</dim>
					<dim>40</dim>
					<dim>40</dim>
				</port>
			</output>
		</layer>
		<layer id="279" name="onnx_initializer_node_model.6.m.5.cv1.conv.weight/Output_0/Data__const" type="Const" version="opset1">
			<data element_type="f16" offset="7002084" shape="192,192,1,1" size="73728"/>
			<output>
				<port id="1" precision="FP16">
					<dim>192</dim>
					<dim>192</dim>
					<dim>1</dim>
					<dim>1</dim>
				</port>
			</output>
		</layer>
		<layer id="280" name="Conv_134/WithoutBiases" type="Convolution" version="opset1">
			<data dilations="1,1" output_padding="0,0" pads_begin="0,0" pads_end="0,0" strides="1,1"/>
			<input>
				<port id="0">
					<dim>1</dim>
					<dim>192</dim>
					<dim>40</dim>
					<dim>40</dim>
				</port>
				<port id="1">
					<dim>192</dim>
					<dim>192</dim>
					<dim>1</dim>
					<dim>1</dim>
				</port>
			</input>
			<output>
				<port id="2" precision="FP16">
					<dim>1</dim>
					<dim>192</dim>
					<dim>40</dim>
					<dim>40</dim>
				</port>
			</output>
		</layer>
		<layer id="281" name="Conv_134/Dims13281/copy_const" type="Const" version="opset1">
			<data element_type="f16" offset="7075812" shape="1,192,1,1" size="384"/>
			<output>
				<port id="1" precision="FP16">
					<dim>1</dim>
					<dim>192</dim>
					<dim>1</dim>
					<dim>1</dim>
				</port>
			</output>
		</layer>
		<layer id="282" name="Conv_134" type="Add" version="opset1">
			<input>
				<port id="0">
					<dim>1</dim>
					<dim>192</dim>
					<dim>40</dim>
					<dim>40</dim>
				</port>
				<port id="1">
					<dim>1</dim>
					<dim>192</dim>
					<dim>1</dim>
					<dim>1</dim>
				</port>
			</input>
			<output>
				<port id="2" precision="FP16">
					<dim>1</dim>
					<dim>192</dim>
					<dim>40</dim>
					<dim>40</dim>
				</port>
			</output>
		</layer>
		<layer id="283" name="LeakyRelu_135/Cast_146288_const" type="Const" version="opset1">
			<data element_type="f32" offset="10688" shape="1" size="4"/>
			<output>
				<port id="1" precision="FP32">
					<dim>1</dim>
				</port>
			</output>
		</layer>
		<layer id="284" name="LeakyRelu_135" type="PReLU" version="opset1">
			<input>
				<port id="0">
					<dim>1</dim>
					<dim>192</dim>
					<dim>40</dim>
					<dim>40</dim>
				</port>
				<port id="1">
					<dim>1</dim>
				</port>
			</input>
			<output>
				<port id="2" precision="FP16">
					<dim>1</dim>
					<dim>192</dim>
					<dim>40</dim>
					<dim>40</dim>
				</port>
			</output>
		</layer>
		<layer id="285" name="onnx_initializer_node_model.6.m.5.cv2.conv.weight/Output_0/Data__const" type="Const" version="opset1">
			<data element_type="f16" offset="7076196" shape="192,192,3,3" size="663552"/>
			<output>
				<port id="1" precision="FP16">
					<dim>192</dim>
					<dim>192</dim>
					<dim>3</dim>
					<dim>3</dim>
				</port>
			</output>
		</layer>
		<layer id="286" name="Conv_136/WithoutBiases" type="Convolution" version="opset1">
			<data dilations="1,1" output_padding="0,0" pads_begin="1,1" pads_end="1,1" strides="1,1"/>
			<input>
				<port id="0">
					<dim>1</dim>
					<dim>192</dim>
					<dim>40</dim>
					<dim>40</dim>
				</port>
				<port id="1">
					<dim>192</dim>
					<dim>192</dim>
					<dim>3</dim>
					<dim>3</dim>
				</port>
			</input>
			<output>
				<port id="2" precision="FP16">
					<dim>1</dim>
					<dim>192</dim>
					<dim>40</dim>
					<dim>40</dim>
				</port>
			</output>
		</layer>
		<layer id="287" name="Conv_136/Dims13113/copy_const" type="Const" version="opset1">
			<data element_type="f16" offset="7739748" shape="1,192,1,1" size="384"/>
			<output>
				<port id="1" precision="FP16">
					<dim>1</dim>
					<dim>192</dim>
					<dim>1</dim>
					<dim>1</dim>
				</port>
			</output>
		</layer>
		<layer id="288" name="Conv_136" type="Add" version="opset1">
			<input>
				<port id="0">
					<dim>1</dim>
					<dim>192</dim>
					<dim>40</dim>
					<dim>40</dim>
				</port>
				<port id="1">
					<dim>1</dim>
					<dim>192</dim>
					<dim>1</dim>
					<dim>1</dim>
				</port>
			</input>
			<output>
				<port id="2" precision="FP16">
					<dim>1</dim>
					<dim>192</dim>
					<dim>40</dim>
					<dim>40</dim>
				</port>
			</output>
		</layer>
		<layer id="289" name="LeakyRelu_137/Cast_146480_const" type="Const" version="opset1">
			<data element_type="f32" offset="10688" shape="1" size="4"/>
			<output>
				<port id="1" precision="FP32">
					<dim>1</dim>
				</port>
			</output>
		</layer>
		<layer id="290" name="LeakyRelu_137" type="PReLU" version="opset1">
			<input>
				<port id="0">
					<dim>1</dim>
					<dim>192</dim>
					<dim>40</dim>
					<dim>40</dim>
				</port>
				<port id="1">
					<dim>1</dim>
				</port>
			</input>
			<output>
				<port id="2" precision="FP16">
					<dim>1</dim>
					<dim>192</dim>
					<dim>40</dim>
					<dim>40</dim>
				</port>
			</output>
		</layer>
		<layer id="291" name="Add_138" type="Add" version="opset1">
			<input>
				<port id="0">
					<dim>1</dim>
					<dim>192</dim>
					<dim>40</dim>
					<dim>40</dim>
				</port>
				<port id="1">
					<dim>1</dim>
					<dim>192</dim>
					<dim>40</dim>
					<dim>40</dim>
				</port>
			</input>
			<output>
				<port id="2" precision="FP16">
					<dim>1</dim>
					<dim>192</dim>
					<dim>40</dim>
					<dim>40</dim>
				</port>
			</output>
		</layer>
		<layer id="292" name="onnx_initializer_node_model.6.cv3.weight/Output_0/Data__const" type="Const" version="opset1">
			<data element_type="f16" offset="7740132" shape="192,192,1,1" size="73728"/>
			<output>
				<port id="1" precision="FP16">
					<dim>192</dim>
					<dim>192</dim>
					<dim>1</dim>
					<dim>1</dim>
				</port>
			</output>
		</layer>
		<layer id="293" name="Conv_139" type="Convolution" version="opset1">
			<data dilations="1,1" output_padding="0,0" pads_begin="0,0" pads_end="0,0" strides="1,1"/>
			<input>
				<port id="0">
					<dim>1</dim>
					<dim>192</dim>
					<dim>40</dim>
					<dim>40</dim>
				</port>
				<port id="1">
					<dim>192</dim>
					<dim>192</dim>
					<dim>1</dim>
					<dim>1</dim>
				</port>
			</input>
			<output>
				<port id="2" precision="FP16">
					<dim>1</dim>
					<dim>192</dim>
					<dim>40</dim>
					<dim>40</dim>
				</port>
			</output>
		</layer>
		<layer id="294" name="onnx_initializer_node_model.6.cv2.weight/Output_0/Data__const" type="Const" version="opset1">
			<data element_type="f16" offset="7813860" shape="192,384,1,1" size="147456"/>
			<output>
				<port id="1" precision="FP16">
					<dim>192</dim>
					<dim>384</dim>
					<dim>1</dim>
					<dim>1</dim>
				</port>
			</output>
		</layer>
		<layer id="295" name="Conv_140" type="Convolution" version="opset1">
			<data dilations="1,1" output_padding="0,0" pads_begin="0,0" pads_end="0,0" strides="1,1"/>
			<input>
				<port id="0">
					<dim>1</dim>
					<dim>384</dim>
					<dim>40</dim>
					<dim>40</dim>
				</port>
				<port id="1">
					<dim>192</dim>
					<dim>384</dim>
					<dim>1</dim>
					<dim>1</dim>
				</port>
			</input>
			<output>
				<port id="2" precision="FP16">
					<dim>1</dim>
					<dim>192</dim>
					<dim>40</dim>
					<dim>40</dim>
				</port>
			</output>
		</layer>
		<layer id="296" name="Concat_141" type="Concat" version="opset1">
			<data axis="1"/>
			<input>
				<port id="0">
					<dim>1</dim>
					<dim>192</dim>
					<dim>40</dim>
					<dim>40</dim>
				</port>
				<port id="1">
					<dim>1</dim>
					<dim>192</dim>
					<dim>40</dim>
					<dim>40</dim>
				</port>
			</input>
			<output>
				<port id="2" precision="FP16">
					<dim>1</dim>
					<dim>384</dim>
					<dim>40</dim>
					<dim>40</dim>
				</port>
			</output>
		</layer>
		<layer id="297" name="data_mul_2047220476/copy_const" type="Const" version="opset1">
			<data element_type="f16" offset="7961316" shape="1,384,1,1" size="768"/>
			<output>
				<port id="1" precision="FP16">
					<dim>1</dim>
					<dim>384</dim>
					<dim>1</dim>
					<dim>1</dim>
				</port>
			</output>
		</layer>
		<layer id="298" name="BatchNormalization_142/mean/Fused_Mul_" type="Multiply" version="opset1">
			<input>
				<port id="0">
					<dim>1</dim>
					<dim>384</dim>
					<dim>40</dim>
					<dim>40</dim>
				</port>
				<port id="1">
					<dim>1</dim>
					<dim>384</dim>
					<dim>1</dim>
					<dim>1</dim>
				</port>
			</input>
			<output>
				<port id="2" precision="FP16">
					<dim>1</dim>
					<dim>384</dim>
					<dim>40</dim>
					<dim>40</dim>
				</port>
			</output>
		</layer>
		<layer id="299" name="data_add_2047320478/copy_const" type="Const" version="opset1">
			<data element_type="f16" offset="7962084" shape="1,384,1,1" size="768"/>
			<output>
				<port id="1" precision="FP16">
					<dim>1</dim>
					<dim>384</dim>
					<dim>1</dim>
					<dim>1</dim>
				</port>
			</output>
		</layer>
		<layer id="300" name="BatchNormalization_142/variance/Fused_Add_" type="Add" version="opset1">
			<input>
				<port id="0">
					<dim>1</dim>
					<dim>384</dim>
					<dim>40</dim>
					<dim>40</dim>
				</port>
				<port id="1">
					<dim>1</dim>
					<dim>384</dim>
					<dim>1</dim>
					<dim>1</dim>
				</port>
			</input>
			<output>
				<port id="2" precision="FP16">
					<dim>1</dim>
					<dim>384</dim>
					<dim>40</dim>
					<dim>40</dim>
				</port>
			</output>
		</layer>
		<layer id="301" name="LeakyRelu_143/Cast_146322_const" type="Const" version="opset1">
			<data element_type="f32" offset="10688" shape="1" size="4"/>
			<output>
				<port id="1" precision="FP32">
					<dim>1</dim>
				</port>
			</output>
		</layer>
		<layer id="302" name="LeakyRelu_143" type="PReLU" version="opset1">
			<input>
				<port id="0">
					<dim>1</dim>
					<dim>384</dim>
					<dim>40</dim>
					<dim>40</dim>
				</port>
				<port id="1">
					<dim>1</dim>
				</port>
			</input>
			<output>
				<port id="2" precision="FP16">
					<dim>1</dim>
					<dim>384</dim>
					<dim>40</dim>
					<dim>40</dim>
				</port>
			</output>
		</layer>
		<layer id="303" name="onnx_initializer_node_model.6.cv4.conv.weight/Output_0/Data__const" type="Const" version="opset1">
			<data element_type="f16" offset="7962852" shape="384,384,1,1" size="294912"/>
			<output>
				<port id="1" precision="FP16">
					<dim>384</dim>
					<dim>384</dim>
					<dim>1</dim>
					<dim>1</dim>
				</port>
			</output>
		</layer>
		<layer id="304" name="Conv_144/WithoutBiases" type="Convolution" version="opset1">
			<data dilations="1,1" output_padding="0,0" pads_begin="0,0" pads_end="0,0" strides="1,1"/>
			<input>
				<port id="0">
					<dim>1</dim>
					<dim>384</dim>
					<dim>40</dim>
					<dim>40</dim>
				</port>
				<port id="1">
					<dim>384</dim>
					<dim>384</dim>
					<dim>1</dim>
					<dim>1</dim>
				</port>
			</input>
			<output>
				<port id="2" precision="FP16">
					<dim>1</dim>
					<dim>384</dim>
					<dim>40</dim>
					<dim>40</dim>
				</port>
			</output>
		</layer>
		<layer id="305" name="Conv_144/Dims13323/copy_const" type="Const" version="opset1">
			<data element_type="f16" offset="8257764" shape="1,384,1,1" size="768"/>
			<output>
				<port id="1" precision="FP16">
					<dim>1</dim>
					<dim>384</dim>
					<dim>1</dim>
					<dim>1</dim>
				</port>
			</output>
		</layer>
		<layer id="306" name="Conv_144" type="Add" version="opset1">
			<input>
				<port id="0">
					<dim>1</dim>
					<dim>384</dim>
					<dim>40</dim>
					<dim>40</dim>
				</port>
				<port id="1">
					<dim>1</dim>
					<dim>384</dim>
					<dim>1</dim>
					<dim>1</dim>
				</port>
			</input>
			<output>
				<port id="2" precision="FP16">
					<dim>1</dim>
					<dim>384</dim>
					<dim>40</dim>
					<dim>40</dim>
				</port>
			</output>
		</layer>
		<layer id="307" name="LeakyRelu_145/Cast_146310_const" type="Const" version="opset1">
			<data element_type="f32" offset="10688" shape="1" size="4"/>
			<output>
				<port id="1" precision="FP32">
					<dim>1</dim>
				</port>
			</output>
		</layer>
		<layer id="308" name="LeakyRelu_145" type="PReLU" version="opset1">
			<input>
				<port id="0">
					<dim>1</dim>
					<dim>384</dim>
					<dim>40</dim>
					<dim>40</dim>
				</port>
				<port id="1">
					<dim>1</dim>
				</port>
			</input>
			<output>
				<port id="2" precision="FP16">
					<dim>1</dim>
					<dim>384</dim>
					<dim>40</dim>
					<dim>40</dim>
				</port>
			</output>
		</layer>
		<layer id="309" name="onnx_initializer_node_model.7.conv.weight/Output_0/Data__const" type="Const" version="opset1">
			<data element_type="f16" offset="8258532" shape="768,384,3,3" size="5308416"/>
			<output>
				<port id="1" precision="FP16">
					<dim>768</dim>
					<dim>384</dim>
					<dim>3</dim>
					<dim>3</dim>
				</port>
			</output>
		</layer>
		<layer id="310" name="Conv_146/WithoutBiases" type="Convolution" version="opset1">
			<data dilations="1,1" output_padding="0,0" pads_begin="1,1" pads_end="1,1" strides="2,2"/>
			<input>
				<port id="0">
					<dim>1</dim>
					<dim>384</dim>
					<dim>40</dim>
					<dim>40</dim>
				</port>
				<port id="1">
					<dim>768</dim>
					<dim>384</dim>
					<dim>3</dim>
					<dim>3</dim>
				</port>
			</input>
			<output>
				<port id="2" precision="FP16">
					<dim>1</dim>
					<dim>768</dim>
					<dim>20</dim>
					<dim>20</dim>
				</port>
			</output>
		</layer>
		<layer id="311" name="Conv_146/Dims13287/copy_const" type="Const" version="opset1">
			<data element_type="f16" offset="13566948" shape="1,768,1,1" size="1536"/>
			<output>
				<port id="1" precision="FP16">
					<dim>1</dim>
					<dim>768</dim>
					<dim>1</dim>
					<dim>1</dim>
				</port>
			</output>
		</layer>
		<layer id="312" name="Conv_146" type="Add" version="opset1">
			<input>
				<port id="0">
					<dim>1</dim>
					<dim>768</dim>
					<dim>20</dim>
					<dim>20</dim>
				</port>
				<port id="1">
					<dim>1</dim>
					<dim>768</dim>
					<dim>1</dim>
					<dim>1</dim>
				</port>
			</input>
			<output>
				<port id="2" precision="FP16">
					<dim>1</dim>
					<dim>768</dim>
					<dim>20</dim>
					<dim>20</dim>
				</port>
			</output>
		</layer>
		<layer id="313" name="LeakyRelu_147/Cast_146674_const" type="Const" version="opset1">
			<data element_type="f32" offset="10688" shape="1" size="4"/>
			<output>
				<port id="1" precision="FP32">
					<dim>1</dim>
				</port>
			</output>
		</layer>
		<layer id="314" name="LeakyRelu_147" type="PReLU" version="opset1">
			<input>
				<port id="0">
					<dim>1</dim>
					<dim>768</dim>
					<dim>20</dim>
					<dim>20</dim>
				</port>
				<port id="1">
					<dim>1</dim>
				</port>
			</input>
			<output>
				<port id="2" precision="FP16">
					<dim>1</dim>
					<dim>768</dim>
					<dim>20</dim>
					<dim>20</dim>
				</port>
			</output>
		</layer>
		<layer id="315" name="onnx_initializer_node_model.8.cv1.conv.weight/Output_0/Data__const" type="Const" version="opset1">
			<data element_type="f16" offset="13568484" shape="384,768,1,1" size="589824"/>
			<output>
				<port id="1" precision="FP16">
					<dim>384</dim>
					<dim>768</dim>
					<dim>1</dim>
					<dim>1</dim>
				</port>
			</output>
		</layer>
		<layer id="316" name="Conv_148/WithoutBiases" type="Convolution" version="opset1">
			<data dilations="1,1" output_padding="0,0" pads_begin="0,0" pads_end="0,0" strides="1,1"/>
			<input>
				<port id="0">
					<dim>1</dim>
					<dim>768</dim>
					<dim>20</dim>
					<dim>20</dim>
				</port>
				<port id="1">
					<dim>384</dim>
					<dim>768</dim>
					<dim>1</dim>
					<dim>1</dim>
				</port>
			</input>
			<output>
				<port id="2" precision="FP16">
					<dim>1</dim>
					<dim>384</dim>
					<dim>20</dim>
					<dim>20</dim>
				</port>
			</output>
		</layer>
		<layer id="317" name="Conv_148/Dims13263/copy_const" type="Const" version="opset1">
			<data element_type="f16" offset="14158308" shape="1,384,1,1" size="768"/>
			<output>
				<port id="1" precision="FP16">
					<dim>1</dim>
					<dim>384</dim>
					<dim>1</dim>
					<dim>1</dim>
				</port>
			</output>
		</layer>
		<layer id="318" name="Conv_148" type="Add" version="opset1">
			<input>
				<port id="0">
					<dim>1</dim>
					<dim>384</dim>
					<dim>20</dim>
					<dim>20</dim>
				</port>
				<port id="1">
					<dim>1</dim>
					<dim>384</dim>
					<dim>1</dim>
					<dim>1</dim>
				</port>
			</input>
			<output>
				<port id="2" precision="FP16">
					<dim>1</dim>
					<dim>384</dim>
					<dim>20</dim>
					<dim>20</dim>
				</port>
			</output>
		</layer>
		<layer id="319" name="LeakyRelu_149/Cast_146552_const" type="Const" version="opset1">
			<data element_type="f32" offset="10688" shape="1" size="4"/>
			<output>
				<port id="1" precision="FP32">
					<dim>1</dim>
				</port>
			</output>
		</layer>
		<layer id="320" name="LeakyRelu_149" type="PReLU" version="opset1">
			<input>
				<port id="0">
					<dim>1</dim>
					<dim>384</dim>
					<dim>20</dim>
					<dim>20</dim>
				</port>
				<port id="1">
					<dim>1</dim>
				</port>
			</input>
			<output>
				<port id="2" precision="FP16">
					<dim>1</dim>
					<dim>384</dim>
					<dim>20</dim>
					<dim>20</dim>
				</port>
			</output>
		</layer>
		<layer id="321" name="MaxPool_150" type="MaxPool" version="opset1">
			<data kernel="5,5" pads_begin="2,2" pads_end="2,2" rounding_type="floor" strides="1,1"/>
			<input>
				<port id="0">
					<dim>1</dim>
					<dim>384</dim>
					<dim>20</dim>
					<dim>20</dim>
				</port>
			</input>
			<output>
				<port id="1" precision="FP16">
					<dim>1</dim>
					<dim>384</dim>
					<dim>20</dim>
					<dim>20</dim>
				</port>
			</output>
		</layer>
		<layer id="322" name="MaxPool_151" type="MaxPool" version="opset1">
			<data kernel="9,9" pads_begin="4,4" pads_end="4,4" rounding_type="floor" strides="1,1"/>
			<input>
				<port id="0">
					<dim>1</dim>
					<dim>384</dim>
					<dim>20</dim>
					<dim>20</dim>
				</port>
			</input>
			<output>
				<port id="1" precision="FP16">
					<dim>1</dim>
					<dim>384</dim>
					<dim>20</dim>
					<dim>20</dim>
				</port>
			</output>
		</layer>
		<layer id="323" name="MaxPool_152" type="MaxPool" version="opset1">
			<data kernel="13,13" pads_begin="6,6" pads_end="6,6" rounding_type="floor" strides="1,1"/>
			<input>
				<port id="0">
					<dim>1</dim>
					<dim>384</dim>
					<dim>20</dim>
					<dim>20</dim>
				</port>
			</input>
			<output>
				<port id="1" precision="FP16">
					<dim>1</dim>
					<dim>384</dim>
					<dim>20</dim>
					<dim>20</dim>
				</port>
			</output>
		</layer>
		<layer id="324" name="Concat_153" type="Concat" version="opset1">
			<data axis="1"/>
			<input>
				<port id="0">
					<dim>1</dim>
					<dim>384</dim>
					<dim>20</dim>
					<dim>20</dim>
				</port>
				<port id="1">
					<dim>1</dim>
					<dim>384</dim>
					<dim>20</dim>
					<dim>20</dim>
				</port>
				<port id="2">
					<dim>1</dim>
					<dim>384</dim>
					<dim>20</dim>
					<dim>20</dim>
				</port>
				<port id="3">
					<dim>1</dim>
					<dim>384</dim>
					<dim>20</dim>
					<dim>20</dim>
				</port>
			</input>
			<output>
				<port id="4" precision="FP16">
					<dim>1</dim>
					<dim>1536</dim>
					<dim>20</dim>
					<dim>20</dim>
				</port>
			</output>
		</layer>
		<layer id="325" name="onnx_initializer_node_model.8.cv2.conv.weight/Output_0/Data__const" type="Const" version="opset1">
			<data element_type="f16" offset="14159076" shape="768,1536,1,1" size="2359296"/>
			<output>
				<port id="1" precision="FP16">
					<dim>768</dim>
					<dim>1536</dim>
					<dim>1</dim>
					<dim>1</dim>
				</port>
			</output>
		</layer>
		<layer id="326" name="Conv_154/WithoutBiases" type="Convolution" version="opset1">
			<data dilations="1,1" output_padding="0,0" pads_begin="0,0" pads_end="0,0" strides="1,1"/>
			<input>
				<port id="0">
					<dim>1</dim>
					<dim>1536</dim>
					<dim>20</dim>
					<dim>20</dim>
				</port>
				<port id="1">
					<dim>768</dim>
					<dim>1536</dim>
					<dim>1</dim>
					<dim>1</dim>
				</port>
			</input>
			<output>
				<port id="2" precision="FP16">
					<dim>1</dim>
					<dim>768</dim>
					<dim>20</dim>
					<dim>20</dim>
				</port>
			</output>
		</layer>
		<layer id="327" name="Conv_154/Dims13005/copy_const" type="Const" version="opset1">
			<data element_type="f16" offset="16518372" shape="1,768,1,1" size="1536"/>
			<output>
				<port id="1" precision="FP16">
					<dim>1</dim>
					<dim>768</dim>
					<dim>1</dim>
					<dim>1</dim>
				</port>
			</output>
		</layer>
		<layer id="328" name="Conv_154" type="Add" version="opset1">
			<input>
				<port id="0">
					<dim>1</dim>
					<dim>768</dim>
					<dim>20</dim>
					<dim>20</dim>
				</port>
				<port id="1">
					<dim>1</dim>
					<dim>768</dim>
					<dim>1</dim>
					<dim>1</dim>
				</port>
			</input>
			<output>
				<port id="2" precision="FP16">
					<dim>1</dim>
					<dim>768</dim>
					<dim>20</dim>
					<dim>20</dim>
				</port>
			</output>
		</layer>
		<layer id="329" name="LeakyRelu_155/Cast_146394_const" type="Const" version="opset1">
			<data element_type="f32" offset="10688" shape="1" size="4"/>
			<output>
				<port id="1" precision="FP32">
					<dim>1</dim>
				</port>
			</output>
		</layer>
		<layer id="330" name="LeakyRelu_155" type="PReLU" version="opset1">
			<input>
				<port id="0">
					<dim>1</dim>
					<dim>768</dim>
					<dim>20</dim>
					<dim>20</dim>
				</port>
				<port id="1">
					<dim>1</dim>
				</port>
			</input>
			<output>
				<port id="2" precision="FP16">
					<dim>1</dim>
					<dim>768</dim>
					<dim>20</dim>
					<dim>20</dim>
				</port>
			</output>
		</layer>
		<layer id="331" name="onnx_initializer_node_model.9.cv1.conv.weight/Output_0/Data__const" type="Const" version="opset1">
			<data element_type="f16" offset="16519908" shape="384,768,1,1" size="589824"/>
			<output>
				<port id="1" precision="FP16">
					<dim>384</dim>
					<dim>768</dim>
					<dim>1</dim>
					<dim>1</dim>
				</port>
			</output>
		</layer>
		<layer id="332" name="Conv_156/WithoutBiases" type="Convolution" version="opset1">
			<data dilations="1,1" output_padding="0,0" pads_begin="0,0" pads_end="0,0" strides="1,1"/>
			<input>
				<port id="0">
					<dim>1</dim>
					<dim>768</dim>
					<dim>20</dim>
					<dim>20</dim>
				</port>
				<port id="1">
					<dim>384</dim>
					<dim>768</dim>
					<dim>1</dim>
					<dim>1</dim>
				</port>
			</input>
			<output>
				<port id="2" precision="FP16">
					<dim>1</dim>
					<dim>384</dim>
					<dim>20</dim>
					<dim>20</dim>
				</port>
			</output>
		</layer>
		<layer id="333" name="Conv_156/Dims13257/copy_const" type="Const" version="opset1">
			<data element_type="f16" offset="17109732" shape="1,384,1,1" size="768"/>
			<output>
				<port id="1" precision="FP16">
					<dim>1</dim>
					<dim>384</dim>
					<dim>1</dim>
					<dim>1</dim>
				</port>
			</output>
		</layer>
		<layer id="334" name="Conv_156" type="Add" version="opset1">
			<input>
				<port id="0">
					<dim>1</dim>
					<dim>384</dim>
					<dim>20</dim>
					<dim>20</dim>
				</port>
				<port id="1">
					<dim>1</dim>
					<dim>384</dim>
					<dim>1</dim>
					<dim>1</dim>
				</port>
			</input>
			<output>
				<port id="2" precision="FP16">
					<dim>1</dim>
					<dim>384</dim>
					<dim>20</dim>
					<dim>20</dim>
				</port>
			</output>
		</layer>
		<layer id="335" name="LeakyRelu_157/Cast_146428_const" type="Const" version="opset1">
			<data element_type="f32" offset="10688" shape="1" size="4"/>
			<output>
				<port id="1" precision="FP32">
					<dim>1</dim>
				</port>
			</output>
		</layer>
		<layer id="336" name="LeakyRelu_157" type="PReLU" version="opset1">
			<input>
				<port id="0">
					<dim>1</dim>
					<dim>384</dim>
					<dim>20</dim>
					<dim>20</dim>
				</port>
				<port id="1">
					<dim>1</dim>
				</port>
			</input>
			<output>
				<port id="2" precision="FP16">
					<dim>1</dim>
					<dim>384</dim>
					<dim>20</dim>
					<dim>20</dim>
				</port>
			</output>
		</layer>
		<layer id="337" name="onnx_initializer_node_model.9.m.0.cv1.conv.weight/Output_0/Data__const" type="Const" version="opset1">
			<data element_type="f16" offset="17110500" shape="384,384,1,1" size="294912"/>
			<output>
				<port id="1" precision="FP16">
					<dim>384</dim>
					<dim>384</dim>
					<dim>1</dim>
					<dim>1</dim>
				</port>
			</output>
		</layer>
		<layer id="338" name="Conv_158/WithoutBiases" type="Convolution" version="opset1">
			<data dilations="1,1" output_padding="0,0" pads_begin="0,0" pads_end="0,0" strides="1,1"/>
			<input>
				<port id="0">
					<dim>1</dim>
					<dim>384</dim>
					<dim>20</dim>
					<dim>20</dim>
				</port>
				<port id="1">
					<dim>384</dim>
					<dim>384</dim>
					<dim>1</dim>
					<dim>1</dim>
				</port>
			</input>
			<output>
				<port id="2" precision="FP16">
					<dim>1</dim>
					<dim>384</dim>
					<dim>20</dim>
					<dim>20</dim>
				</port>
			</output>
		</layer>
		<layer id="339" name="Conv_158/Dims13233/copy_const" type="Const" version="opset1">
			<data element_type="f16" offset="17405412" shape="1,384,1,1" size="768"/>
			<output>
				<port id="1" precision="FP16">
					<dim>1</dim>
					<dim>384</dim>
					<dim>1</dim>
					<dim>1</dim>
				</port>
			</output>
		</layer>
		<layer id="340" name="Conv_158" type="Add" version="opset1">
			<input>
				<port id="0">
					<dim>1</dim>
					<dim>384</dim>
					<dim>20</dim>
					<dim>20</dim>
				</port>
				<port id="1">
					<dim>1</dim>
					<dim>384</dim>
					<dim>1</dim>
					<dim>1</dim>
				</port>
			</input>
			<output>
				<port id="2" precision="FP16">
					<dim>1</dim>
					<dim>384</dim>
					<dim>20</dim>
					<dim>20</dim>
				</port>
			</output>
		</layer>
		<layer id="341" name="LeakyRelu_159/Cast_146482_const" type="Const" version="opset1">
			<data element_type="f32" offset="10688" shape="1" size="4"/>
			<output>
				<port id="1" precision="FP32">
					<dim>1</dim>
				</port>
			</output>
		</layer>
		<layer id="342" name="LeakyRelu_159" type="PReLU" version="opset1">
			<input>
				<port id="0">
					<dim>1</dim>
					<dim>384</dim>
					<dim>20</dim>
					<dim>20</dim>
				</port>
				<port id="1">
					<dim>1</dim>
				</port>
			</input>
			<output>
				<port id="2" precision="FP16">
					<dim>1</dim>
					<dim>384</dim>
					<dim>20</dim>
					<dim>20</dim>
				</port>
			</output>
		</layer>
		<layer id="343" name="onnx_initializer_node_model.9.m.0.cv2.conv.weight/Output_0/Data__const" type="Const" version="opset1">
			<data element_type="f16" offset="17406180" shape="384,384,3,3" size="2654208"/>
			<output>
				<port id="1" precision="FP16">
					<dim>384</dim>
					<dim>384</dim>
					<dim>3</dim>
					<dim>3</dim>
				</port>
			</output>
		</layer>
		<layer id="344" name="Conv_160/WithoutBiases" type="Convolution" version="opset1">
			<data dilations="1,1" output_padding="0,0" pads_begin="1,1" pads_end="1,1" strides="1,1"/>
			<input>
				<port id="0">
					<dim>1</dim>
					<dim>384</dim>
					<dim>20</dim>
					<dim>20</dim>
				</port>
				<port id="1">
					<dim>384</dim>
					<dim>384</dim>
					<dim>3</dim>
					<dim>3</dim>
				</port>
			</input>
			<output>
				<port id="2" precision="FP16">
					<dim>1</dim>
					<dim>384</dim>
					<dim>20</dim>
					<dim>20</dim>
				</port>
			</output>
		</layer>
		<layer id="345" name="Conv_160/Dims13053/copy_const" type="Const" version="opset1">
			<data element_type="f16" offset="20060388" shape="1,384,1,1" size="768"/>
			<output>
				<port id="1" precision="FP16">
					<dim>1</dim>
					<dim>384</dim>
					<dim>1</dim>
					<dim>1</dim>
				</port>
			</output>
		</layer>
		<layer id="346" name="Conv_160" type="Add" version="opset1">
			<input>
				<port id="0">
					<dim>1</dim>
					<dim>384</dim>
					<dim>20</dim>
					<dim>20</dim>
				</port>
				<port id="1">
					<dim>1</dim>
					<dim>384</dim>
					<dim>1</dim>
					<dim>1</dim>
				</port>
			</input>
			<output>
				<port id="2" precision="FP16">
					<dim>1</dim>
					<dim>384</dim>
					<dim>20</dim>
					<dim>20</dim>
				</port>
			</output>
		</layer>
		<layer id="347" name="LeakyRelu_161/Cast_146110_const" type="Const" version="opset1">
			<data element_type="f32" offset="10688" shape="1" size="4"/>
			<output>
				<port id="1" precision="FP32">
					<dim>1</dim>
				</port>
			</output>
		</layer>
		<layer id="348" name="LeakyRelu_161" type="PReLU" version="opset1">
			<input>
				<port id="0">
					<dim>1</dim>
					<dim>384</dim>
					<dim>20</dim>
					<dim>20</dim>
				</port>
				<port id="1">
					<dim>1</dim>
				</port>
			</input>
			<output>
				<port id="2" precision="FP16">
					<dim>1</dim>
					<dim>384</dim>
					<dim>20</dim>
					<dim>20</dim>
				</port>
			</output>
		</layer>
		<layer id="349" name="onnx_initializer_node_model.9.m.1.cv1.conv.weight/Output_0/Data__const" type="Const" version="opset1">
			<data element_type="f16" offset="20061156" shape="384,384,1,1" size="294912"/>
			<output>
				<port id="1" precision="FP16">
					<dim>384</dim>
					<dim>384</dim>
					<dim>1</dim>
					<dim>1</dim>
				</port>
			</output>
		</layer>
		<layer id="350" name="Conv_162/WithoutBiases" type="Convolution" version="opset1">
			<data dilations="1,1" output_padding="0,0" pads_begin="0,0" pads_end="0,0" strides="1,1"/>
			<input>
				<port id="0">
					<dim>1</dim>
					<dim>384</dim>
					<dim>20</dim>
					<dim>20</dim>
				</port>
				<port id="1">
					<dim>384</dim>
					<dim>384</dim>
					<dim>1</dim>
					<dim>1</dim>
				</port>
			</input>
			<output>
				<port id="2" precision="FP16">
					<dim>1</dim>
					<dim>384</dim>
					<dim>20</dim>
					<dim>20</dim>
				</port>
			</output>
		</layer>
		<layer id="351" name="Conv_162/Dims13083/copy_const" type="Const" version="opset1">
			<data element_type="f16" offset="20356068" shape="1,384,1,1" size="768"/>
			<output>
				<port id="1" precision="FP16">
					<dim>1</dim>
					<dim>384</dim>
					<dim>1</dim>
					<dim>1</dim>
				</port>
			</output>
		</layer>
		<layer id="352" name="Conv_162" type="Add" version="opset1">
			<input>
				<port id="0">
					<dim>1</dim>
					<dim>384</dim>
					<dim>20</dim>
					<dim>20</dim>
				</port>
				<port id="1">
					<dim>1</dim>
					<dim>384</dim>
					<dim>1</dim>
					<dim>1</dim>
				</port>
			</input>
			<output>
				<port id="2" precision="FP16">
					<dim>1</dim>
					<dim>384</dim>
					<dim>20</dim>
					<dim>20</dim>
				</port>
			</output>
		</layer>
		<layer id="353" name="LeakyRelu_163/Cast_146558_const" type="Const" version="opset1">
			<data element_type="f32" offset="10688" shape="1" size="4"/>
			<output>
				<port id="1" precision="FP32">
					<dim>1</dim>
				</port>
			</output>
		</layer>
		<layer id="354" name="LeakyRelu_163" type="PReLU" version="opset1">
			<input>
				<port id="0">
					<dim>1</dim>
					<dim>384</dim>
					<dim>20</dim>
					<dim>20</dim>
				</port>
				<port id="1">
					<dim>1</dim>
				</port>
			</input>
			<output>
				<port id="2" precision="FP16">
					<dim>1</dim>
					<dim>384</dim>
					<dim>20</dim>
					<dim>20</dim>
				</port>
			</output>
		</layer>
		<layer id="355" name="onnx_initializer_node_model.9.m.1.cv2.conv.weight/Output_0/Data__const" type="Const" version="opset1">
			<data element_type="f16" offset="20356836" shape="384,384,3,3" size="2654208"/>
			<output>
				<port id="1" precision="FP16">
					<dim>384</dim>
					<dim>384</dim>
					<dim>3</dim>
					<dim>3</dim>
				</port>
			</output>
		</layer>
		<layer id="356" name="Conv_164/WithoutBiases" type="Convolution" version="opset1">
			<data dilations="1,1" output_padding="0,0" pads_begin="1,1" pads_end="1,1" strides="1,1"/>
			<input>
				<port id="0">
					<dim>1</dim>
					<dim>384</dim>
					<dim>20</dim>
					<dim>20</dim>
				</port>
				<port id="1">
					<dim>384</dim>
					<dim>384</dim>
					<dim>3</dim>
					<dim>3</dim>
				</port>
			</input>
			<output>
				<port id="2" precision="FP16">
					<dim>1</dim>
					<dim>384</dim>
					<dim>20</dim>
					<dim>20</dim>
				</port>
			</output>
		</layer>
		<layer id="357" name="Conv_164/Dims13029/copy_const" type="Const" version="opset1">
			<data element_type="f16" offset="23011044" shape="1,384,1,1" size="768"/>
			<output>
				<port id="1" precision="FP16">
					<dim>1</dim>
					<dim>384</dim>
					<dim>1</dim>
					<dim>1</dim>
				</port>
			</output>
		</layer>
		<layer id="358" name="Conv_164" type="Add" version="opset1">
			<input>
				<port id="0">
					<dim>1</dim>
					<dim>384</dim>
					<dim>20</dim>
					<dim>20</dim>
				</port>
				<port id="1">
					<dim>1</dim>
					<dim>384</dim>
					<dim>1</dim>
					<dim>1</dim>
				</port>
			</input>
			<output>
				<port id="2" precision="FP16">
					<dim>1</dim>
					<dim>384</dim>
					<dim>20</dim>
					<dim>20</dim>
				</port>
			</output>
		</layer>
		<layer id="359" name="LeakyRelu_165/Cast_146200_const" type="Const" version="opset1">
			<data element_type="f32" offset="10688" shape="1" size="4"/>
			<output>
				<port id="1" precision="FP32">
					<dim>1</dim>
				</port>
			</output>
		</layer>
		<layer id="360" name="LeakyRelu_165" type="PReLU" version="opset1">
			<input>
				<port id="0">
					<dim>1</dim>
					<dim>384</dim>
					<dim>20</dim>
					<dim>20</dim>
				</port>
				<port id="1">
					<dim>1</dim>
				</port>
			</input>
			<output>
				<port id="2" precision="FP16">
					<dim>1</dim>
					<dim>384</dim>
					<dim>20</dim>
					<dim>20</dim>
				</port>
			</output>
		</layer>
		<layer id="361" name="onnx_initializer_node_model.9.cv3.weight/Output_0/Data__const" type="Const" version="opset1">
			<data element_type="f16" offset="23011812" shape="384,384,1,1" size="294912"/>
			<output>
				<port id="1" precision="FP16">
					<dim>384</dim>
					<dim>384</dim>
					<dim>1</dim>
					<dim>1</dim>
				</port>
			</output>
		</layer>
		<layer id="362" name="Conv_166" type="Convolution" version="opset1">
			<data dilations="1,1" output_padding="0,0" pads_begin="0,0" pads_end="0,0" strides="1,1"/>
			<input>
				<port id="0">
					<dim>1</dim>
					<dim>384</dim>
					<dim>20</dim>
					<dim>20</dim>
				</port>
				<port id="1">
					<dim>384</dim>
					<dim>384</dim>
					<dim>1</dim>
					<dim>1</dim>
				</port>
			</input>
			<output>
				<port id="2" precision="FP16">
					<dim>1</dim>
					<dim>384</dim>
					<dim>20</dim>
					<dim>20</dim>
				</port>
			</output>
		</layer>
		<layer id="363" name="onnx_initializer_node_model.9.cv2.weight/Output_0/Data__const" type="Const" version="opset1">
			<data element_type="f16" offset="23306724" shape="384,768,1,1" size="589824"/>
			<output>
				<port id="1" precision="FP16">
					<dim>384</dim>
					<dim>768</dim>
					<dim>1</dim>
					<dim>1</dim>
				</port>
			</output>
		</layer>
		<layer id="364" name="Conv_167" type="Convolution" version="opset1">
			<data dilations="1,1" output_padding="0,0" pads_begin="0,0" pads_end="0,0" strides="1,1"/>
			<input>
				<port id="0">
					<dim>1</dim>
					<dim>768</dim>
					<dim>20</dim>
					<dim>20</dim>
				</port>
				<port id="1">
					<dim>384</dim>
					<dim>768</dim>
					<dim>1</dim>
					<dim>1</dim>
				</port>
			</input>
			<output>
				<port id="2" precision="FP16">
					<dim>1</dim>
					<dim>384</dim>
					<dim>20</dim>
					<dim>20</dim>
				</port>
			</output>
		</layer>
		<layer id="365" name="Concat_168" type="Concat" version="opset1">
			<data axis="1"/>
			<input>
				<port id="0">
					<dim>1</dim>
					<dim>384</dim>
					<dim>20</dim>
					<dim>20</dim>
				</port>
				<port id="1">
					<dim>1</dim>
					<dim>384</dim>
					<dim>20</dim>
					<dim>20</dim>
				</port>
			</input>
			<output>
				<port id="2" precision="FP16">
					<dim>1</dim>
					<dim>768</dim>
					<dim>20</dim>
					<dim>20</dim>
				</port>
			</output>
		</layer>
		<layer id="366" name="data_mul_2048020484/copy_const" type="Const" version="opset1">
			<data element_type="f16" offset="23896548" shape="1,768,1,1" size="1536"/>
			<output>
				<port id="1" precision="FP16">
					<dim>1</dim>
					<dim>768</dim>
					<dim>1</dim>
					<dim>1</dim>
				</port>
			</output>
		</layer>
		<layer id="367" name="BatchNormalization_169/mean/Fused_Mul_" type="Multiply" version="opset1">
			<input>
				<port id="0">
					<dim>1</dim>
					<dim>768</dim>
					<dim>20</dim>
					<dim>20</dim>
				</port>
				<port id="1">
					<dim>1</dim>
					<dim>768</dim>
					<dim>1</dim>
					<dim>1</dim>
				</port>
			</input>
			<output>
				<port id="2" precision="FP16">
					<dim>1</dim>
					<dim>768</dim>
					<dim>20</dim>
					<dim>20</dim>
				</port>
			</output>
		</layer>
		<layer id="368" name="data_add_2048120486/copy_const" type="Const" version="opset1">
			<data element_type="f16" offset="23898084" shape="1,768,1,1" size="1536"/>
			<output>
				<port id="1" precision="FP16">
					<dim>1</dim>
					<dim>768</dim>
					<dim>1</dim>
					<dim>1</dim>
				</port>
			</output>
		</layer>
		<layer id="369" name="BatchNormalization_169/variance/Fused_Add_" type="Add" version="opset1">
			<input>
				<port id="0">
					<dim>1</dim>
					<dim>768</dim>
					<dim>20</dim>
					<dim>20</dim>
				</port>
				<port id="1">
					<dim>1</dim>
					<dim>768</dim>
					<dim>1</dim>
					<dim>1</dim>
				</port>
			</input>
			<output>
				<port id="2" precision="FP16">
					<dim>1</dim>
					<dim>768</dim>
					<dim>20</dim>
					<dim>20</dim>
				</port>
			</output>
		</layer>
		<layer id="370" name="LeakyRelu_170/Cast_146166_const" type="Const" version="opset1">
			<data element_type="f32" offset="10688" shape="1" size="4"/>
			<output>
				<port id="1" precision="FP32">
					<dim>1</dim>
				</port>
			</output>
		</layer>
		<layer id="371" name="LeakyRelu_170" type="PReLU" version="opset1">
			<input>
				<port id="0">
					<dim>1</dim>
					<dim>768</dim>
					<dim>20</dim>
					<dim>20</dim>
				</port>
				<port id="1">
					<dim>1</dim>
				</port>
			</input>
			<output>
				<port id="2" precision="FP16">
					<dim>1</dim>
					<dim>768</dim>
					<dim>20</dim>
					<dim>20</dim>
				</port>
			</output>
		</layer>
		<layer id="372" name="onnx_initializer_node_model.9.cv4.conv.weight/Output_0/Data__const" type="Const" version="opset1">
			<data element_type="f16" offset="23899620" shape="768,768,1,1" size="1179648"/>
			<output>
				<port id="1" precision="FP16">
					<dim>768</dim>
					<dim>768</dim>
					<dim>1</dim>
					<dim>1</dim>
				</port>
			</output>
		</layer>
		<layer id="373" name="Conv_171/WithoutBiases" type="Convolution" version="opset1">
			<data dilations="1,1" output_padding="0,0" pads_begin="0,0" pads_end="0,0" strides="1,1"/>
			<input>
				<port id="0">
					<dim>1</dim>
					<dim>768</dim>
					<dim>20</dim>
					<dim>20</dim>
				</port>
				<port id="1">
					<dim>768</dim>
					<dim>768</dim>
					<dim>1</dim>
					<dim>1</dim>
				</port>
			</input>
			<output>
				<port id="2" precision="FP16">
					<dim>1</dim>
					<dim>768</dim>
					<dim>20</dim>
					<dim>20</dim>
				</port>
			</output>
		</layer>
		<layer id="374" name="Conv_171/Dims12963/copy_const" type="Const" version="opset1">
			<data element_type="f16" offset="25079268" shape="1,768,1,1" size="1536"/>
			<output>
				<port id="1" precision="FP16">
					<dim>1</dim>
					<dim>768</dim>
					<dim>1</dim>
					<dim>1</dim>
				</port>
			</output>
		</layer>
		<layer id="375" name="Conv_171" type="Add" version="opset1">
			<input>
				<port id="0">
					<dim>1</dim>
					<dim>768</dim>
					<dim>20</dim>
					<dim>20</dim>
				</port>
				<port id="1">
					<dim>1</dim>
					<dim>768</dim>
					<dim>1</dim>
					<dim>1</dim>
				</port>
			</input>
			<output>
				<port id="2" precision="FP16">
					<dim>1</dim>
					<dim>768</dim>
					<dim>20</dim>
					<dim>20</dim>
				</port>
			</output>
		</layer>
		<layer id="376" name="LeakyRelu_172/Cast_146126_const" type="Const" version="opset1">
			<data element_type="f32" offset="10688" shape="1" size="4"/>
			<output>
				<port id="1" precision="FP32">
					<dim>1</dim>
				</port>
			</output>
		</layer>
		<layer id="377" name="LeakyRelu_172" type="PReLU" version="opset1">
			<input>
				<port id="0">
					<dim>1</dim>
					<dim>768</dim>
					<dim>20</dim>
					<dim>20</dim>
				</port>
				<port id="1">
					<dim>1</dim>
				</port>
			</input>
			<output>
				<port id="2" precision="FP16">
					<dim>1</dim>
					<dim>768</dim>
					<dim>20</dim>
					<dim>20</dim>
				</port>
			</output>
		</layer>
		<layer id="378" name="onnx_initializer_node_model.10.conv.weight/Output_0/Data__const" type="Const" version="opset1">
			<data element_type="f16" offset="25080804" shape="384,768,1,1" size="589824"/>
			<output>
				<port id="1" precision="FP16">
					<dim>384</dim>
					<dim>768</dim>
					<dim>1</dim>
					<dim>1</dim>
…
		<edge from-layer="843" from-port="2" to-layer="920" to-port="0"/>
		<edge from-layer="861" from-port="2" to-layer="920" to-port="1"/>
		<edge from-layer="879" from-port="2" to-layer="920" to-port="2"/>
		<edge from-layer="897" from-port="2" to-layer="920" to-port="3"/>
		<edge from-layer="919" from-port="2" to-layer="920" to-port="4"/>
		<edge from-layer="815" from-port="3" to-layer="922" to-port="0"/>
		<edge from-layer="921" from-port="1" to-layer="922" to-port="1"/>
		<edge from-layer="922" from-port="2" to-layer="924" to-port="0"/>
		<edge from-layer="923" from-port="1" to-layer="924" to-port="1"/>
		<edge from-layer="924" from-port="2" to-layer="926" to-port="0"/>
		<edge from-layer="925" from-port="1" to-layer="926" to-port="1"/>
		<edge from-layer="926" from-port="2" to-layer="928" to-port="0"/>
		<edge from-layer="927" from-port="1" to-layer="928" to-port="1"/>
		<edge from-layer="928" from-port="2" to-layer="930" to-port="0"/>
		<edge from-layer="929" from-port="1" to-layer="930" to-port="1"/>
		<edge from-layer="930" from-port="2" to-layer="932" to-port="0"/>
		<edge from-layer="931" from-port="1" to-layer="932" to-port="1"/>
		<edge from-layer="815" from-port="3" to-layer="933" to-port="0"/>
		<edge from-layer="932" from-port="2" to-layer="934" to-port="0"/>
		<edge from-layer="933" from-port="1" to-layer="934" to-port="1"/>
		<edge from-layer="934" from-port="2" to-layer="935" to-port="0"/>
		<edge from-layer="834" from-port="1" to-layer="935" to-port="1"/>
		<edge from-layer="812" from-port="1" to-layer="936" to-port="0"/>
		<edge from-layer="920" from-port="5" to-layer="936" to-port="1"/>
		<edge from-layer="935" from-port="2" to-layer="936" to-port="2"/>
		<edge from-layer="936" from-port="3" to-layer="939" to-port="0"/>
		<edge from-layer="937" from-port="1" to-layer="939" to-port="1"/>
		<edge from-layer="938" from-port="1" to-layer="939" to-port="2"/>
		<edge from-layer="939" from-port="3" to-layer="940" to-port="0"/>
		<edge from-layer="939" from-port="5" to-layer="941" to-port="0"/>
		<edge from-layer="569" from-port="2" to-layer="943" to-port="0"/>
		<edge from-layer="942" from-port="1" to-layer="943" to-port="1"/>
		<edge from-layer="943" from-port="2" to-layer="945" to-port="0"/>
		<edge from-layer="944" from-port="1" to-layer="945" to-port="1"/>
		<edge from-layer="945" from-port="2" to-layer="946" to-port="0"/>
		<edge from-layer="946" from-port="1" to-layer="949" to-port="0"/>
		<edge from-layer="947" from-port="1" to-layer="949" to-port="1"/>
		<edge from-layer="948" from-port="1" to-layer="949" to-port="2"/>
		<edge from-layer="949" from-port="3" to-layer="951" to-port="0"/>
		<edge from-layer="950" from-port="1" to-layer="951" to-port="1"/>
		<edge from-layer="945" from-port="2" to-layer="954" to-port="0"/>
		<edge from-layer="954" from-port="1" to-layer="957" to-port="0"/>
		<edge from-layer="955" from-port="1" to-layer="957" to-port="1"/>
		<edge from-layer="956" from-port="1" to-layer="957" to-port="2"/>
		<edge from-layer="957" from-port="3" to-layer="959" to-port="0"/>
		<edge from-layer="958" from-port="1" to-layer="959" to-port="1"/>
		<edge from-layer="945" from-port="2" to-layer="960" to-port="0"/>
		<edge from-layer="960" from-port="1" to-layer="963" to-port="0"/>
		<edge from-layer="961" from-port="1" to-layer="963" to-port="1"/>
		<edge from-layer="962" from-port="1" to-layer="963" to-port="2"/>
		<edge from-layer="963" from-port="3" to-layer="965" to-port="0"/>
		<edge from-layer="964" from-port="1" to-layer="965" to-port="1"/>
		<edge from-layer="951" from-port="2" to-layer="966" to-port="0"/>
		<edge from-layer="952" from-port="1" to-layer="966" to-port="1"/>
		<edge from-layer="953" from-port="1" to-layer="966" to-port="2"/>
		<edge from-layer="959" from-port="2" to-layer="966" to-port="3"/>
		<edge from-layer="965" from-port="2" to-layer="966" to-port="4"/>
		<edge from-layer="945" from-port="2" to-layer="967" to-port="0"/>
		<edge from-layer="966" from-port="5" to-layer="967" to-port="1"/>
		<edge from-layer="967" from-port="2" to-layer="969" to-port="0"/>
		<edge from-layer="968" from-port="1" to-layer="969" to-port="1"/>
		<edge from-layer="969" from-port="2" to-layer="970" to-port="0"/>
		<edge from-layer="969" from-port="2" to-layer="971" to-port="0"/>
		<edge from-layer="971" from-port="1" to-layer="974" to-port="0"/>
		<edge from-layer="972" from-port="1" to-layer="974" to-port="1"/>
		<edge from-layer="973" from-port="1" to-layer="974" to-port="2"/>
		<edge from-layer="974" from-port="4" to-layer="975" to-port="0"/>
		<edge from-layer="971" from-port="1" to-layer="977" to-port="0"/>
		<edge from-layer="977" from-port="1" to-layer="980" to-port="0"/>
		<edge from-layer="978" from-port="1" to-layer="980" to-port="1"/>
		<edge from-layer="979" from-port="1" to-layer="980" to-port="2"/>
		<edge from-layer="976" from-port="1" to-layer="982" to-port="0"/>
		<edge from-layer="980" from-port="3" to-layer="982" to-port="1"/>
		<edge from-layer="981" from-port="1" to-layer="982" to-port="2"/>
		<edge from-layer="982" from-port="3" to-layer="984" to-port="0"/>
		<edge from-layer="983" from-port="1" to-layer="984" to-port="1"/>
		<edge from-layer="984" from-port="2" to-layer="986" to-port="0"/>
		<edge from-layer="985" from-port="1" to-layer="986" to-port="1"/>
		<edge from-layer="986" from-port="2" to-layer="988" to-port="0"/>
		<edge from-layer="987" from-port="1" to-layer="988" to-port="1"/>
		<edge from-layer="988" from-port="2" to-layer="990" to-port="0"/>
		<edge from-layer="989" from-port="1" to-layer="990" to-port="1"/>
		<edge from-layer="990" from-port="2" to-layer="992" to-port="0"/>
		<edge from-layer="991" from-port="1" to-layer="992" to-port="1"/>
		<edge from-layer="992" from-port="2" to-layer="993" to-port="0"/>
		<edge from-layer="993" from-port="1" to-layer="995" to-port="0"/>
		<edge from-layer="994" from-port="1" to-layer="996" to-port="0"/>
		<edge from-layer="995" from-port="1" to-layer="996" to-port="1"/>
		<edge from-layer="996" from-port="2" to-layer="997" to-port="0"/>
		<edge from-layer="993" from-port="1" to-layer="998" to-port="0"/>
		<edge from-layer="997" from-port="1" to-layer="998" to-port="1"/>
		<edge from-layer="998" from-port="2" to-layer="999" to-port="0"/>
		<edge from-layer="996" from-port="2" to-layer="999" to-port="1"/>
		<edge from-layer="993" from-port="1" to-layer="999" to-port="2"/>
		<edge from-layer="984" from-port="2" to-layer="1000" to-port="0"/>
		<edge from-layer="999" from-port="3" to-layer="1000" to-port="1"/>
		<edge from-layer="1000" from-port="2" to-layer="1002" to-port="0"/>
		<edge from-layer="1001" from-port="1" to-layer="1002" to-port="1"/>
		<edge from-layer="971" from-port="1" to-layer="1004" to-port="0"/>
		<edge from-layer="1004" from-port="1" to-layer="1007" to-port="0"/>
		<edge from-layer="1005" from-port="1" to-layer="1007" to-port="1"/>
		<edge from-layer="1006" from-port="1" to-layer="1007" to-port="2"/>
		<edge from-layer="1003" from-port="1" to-layer="1009" to-port="0"/>
		<edge from-layer="1007" from-port="3" to-layer="1009" to-port="1"/>
		<edge from-layer="1008" from-port="1" to-layer="1009" to-port="2"/>
		<edge from-layer="1009" from-port="3" to-layer="1011" to-port="0"/>
		<edge from-layer="1010" from-port="1" to-layer="1011" to-port="1"/>
		<edge from-layer="993" from-port="1" to-layer="1013" to-port="0"/>
		<edge from-layer="1012" from-port="1" to-layer="1014" to-port="0"/>
		<edge from-layer="1013" from-port="1" to-layer="1014" to-port="1"/>
		<edge from-layer="1014" from-port="2" to-layer="1015" to-port="0"/>
		<edge from-layer="993" from-port="1" to-layer="1016" to-port="0"/>
		<edge from-layer="1015" from-port="1" to-layer="1016" to-port="1"/>
		<edge from-layer="1016" from-port="2" to-layer="1017" to-port="0"/>
		<edge from-layer="1014" from-port="2" to-layer="1017" to-port="1"/>
		<edge from-layer="993" from-port="1" to-layer="1017" to-port="2"/>
		<edge from-layer="1011" from-port="2" to-layer="1018" to-port="0"/>
		<edge from-layer="1017" from-port="3" to-layer="1018" to-port="1"/>
		<edge from-layer="1018" from-port="2" to-layer="1020" to-port="0"/>
		<edge from-layer="1019" from-port="1" to-layer="1020" to-port="1"/>
		<edge from-layer="971" from-port="1" to-layer="1022" to-port="0"/>
		<edge from-layer="1022" from-port="1" to-layer="1025" to-port="0"/>
		<edge from-layer="1023" from-port="1" to-layer="1025" to-port="1"/>
		<edge from-layer="1024" from-port="1" to-layer="1025" to-port="2"/>
		<edge from-layer="1021" from-port="1" to-layer="1027" to-port="0"/>
		<edge from-layer="1025" from-port="3" to-layer="1027" to-port="1"/>
		<edge from-layer="1026" from-port="1" to-layer="1027" to-port="2"/>
		<edge from-layer="1027" from-port="3" to-layer="1029" to-port="0"/>
		<edge from-layer="1028" from-port="1" to-layer="1029" to-port="1"/>
		<edge from-layer="993" from-port="1" to-layer="1031" to-port="0"/>
		<edge from-layer="1030" from-port="1" to-layer="1032" to-port="0"/>
		<edge from-layer="1031" from-port="1" to-layer="1032" to-port="1"/>
		<edge from-layer="1032" from-port="2" to-layer="1033" to-port="0"/>
		<edge from-layer="993" from-port="1" to-layer="1034" to-port="0"/>
		<edge from-layer="1033" from-port="1" to-layer="1034" to-port="1"/>
		<edge from-layer="1034" from-port="2" to-layer="1035" to-port="0"/>
		<edge from-layer="1032" from-port="2" to-layer="1035" to-port="1"/>
		<edge from-layer="993" from-port="1" to-layer="1035" to-port="2"/>
		<edge from-layer="1029" from-port="2" to-layer="1036" to-port="0"/>
		<edge from-layer="1035" from-port="3" to-layer="1036" to-port="1"/>
		<edge from-layer="1036" from-port="2" to-layer="1038" to-port="0"/>
		<edge from-layer="1037" from-port="1" to-layer="1038" to-port="1"/>
		<edge from-layer="971" from-port="1" to-layer="1040" to-port="0"/>
		<edge from-layer="1040" from-port="1" to-layer="1043" to-port="0"/>
		<edge from-layer="1041" from-port="1" to-layer="1043" to-port="1"/>
		<edge from-layer="1042" from-port="1" to-layer="1043" to-port="2"/>
		<edge from-layer="1039" from-port="1" to-layer="1045" to-port="0"/>
		<edge from-layer="1043" from-port="3" to-layer="1045" to-port="1"/>
		<edge from-layer="1044" from-port="1" to-layer="1045" to-port="2"/>
		<edge from-layer="1045" from-port="3" to-layer="1047" to-port="0"/>
		<edge from-layer="1046" from-port="1" to-layer="1047" to-port="1"/>
		<edge from-layer="993" from-port="1" to-layer="1049" to-port="0"/>
		<edge from-layer="1048" from-port="1" to-layer="1050" to-port="0"/>
		<edge from-layer="1049" from-port="1" to-layer="1050" to-port="1"/>
		<edge from-layer="1050" from-port="2" to-layer="1051" to-port="0"/>
		<edge from-layer="993" from-port="1" to-layer="1052" to-port="0"/>
		<edge from-layer="1051" from-port="1" to-layer="1052" to-port="1"/>
		<edge from-layer="1052" from-port="2" to-layer="1053" to-port="0"/>
		<edge from-layer="1050" from-port="2" to-layer="1053" to-port="1"/>
		<edge from-layer="993" from-port="1" to-layer="1053" to-port="2"/>
		<edge from-layer="1047" from-port="2" to-layer="1054" to-port="0"/>
		<edge from-layer="1053" from-port="3" to-layer="1054" to-port="1"/>
		<edge from-layer="1054" from-port="2" to-layer="1056" to-port="0"/>
		<edge from-layer="1055" from-port="1" to-layer="1056" to-port="1"/>
		<edge from-layer="971" from-port="1" to-layer="1058" to-port="0"/>
		<edge from-layer="1058" from-port="1" to-layer="1061" to-port="0"/>
		<edge from-layer="1059" from-port="1" to-layer="1061" to-port="1"/>
		<edge from-layer="1060" from-port="1" to-layer="1061" to-port="2"/>
		<edge from-layer="1057" from-port="1" to-layer="1063" to-port="0"/>
		<edge from-layer="1061" from-port="3" to-layer="1063" to-port="1"/>
		<edge from-layer="1062" from-port="1" to-layer="1063" to-port="2"/>
		<edge from-layer="1063" from-port="3" to-layer="1067" to-port="0"/>
		<edge from-layer="1064" from-port="1" to-layer="1067" to-port="1"/>
		<edge from-layer="1065" from-port="1" to-layer="1067" to-port="2"/>
		<edge from-layer="1066" from-port="1" to-layer="1067" to-port="3"/>
		<edge from-layer="1067" from-port="4" to-layer="1069" to-port="0"/>
		<edge from-layer="1068" from-port="1" to-layer="1069" to-port="1"/>
		<edge from-layer="993" from-port="1" to-layer="1071" to-port="0"/>
		<edge from-layer="1070" from-port="1" to-layer="1072" to-port="0"/>
		<edge from-layer="1071" from-port="1" to-layer="1072" to-port="1"/>
		<edge from-layer="1072" from-port="2" to-layer="1073" to-port="0"/>
		<edge from-layer="993" from-port="1" to-layer="1074" to-port="0"/>
		<edge from-layer="1073" from-port="1" to-layer="1074" to-port="1"/>
		<edge from-layer="1074" from-port="2" to-layer="1075" to-port="0"/>
		<edge from-layer="1072" from-port="2" to-layer="1075" to-port="1"/>
		<edge from-layer="993" from-port="1" to-layer="1075" to-port="2"/>
		<edge from-layer="1069" from-port="2" to-layer="1076" to-port="0"/>
		<edge from-layer="1075" from-port="3" to-layer="1076" to-port="1"/>
		<edge from-layer="1076" from-port="2" to-layer="1078" to-port="0"/>
		<edge from-layer="1077" from-port="1" to-layer="1078" to-port="1"/>
		<edge from-layer="1002" from-port="2" to-layer="1079" to-port="0"/>
		<edge from-layer="1020" from-port="2" to-layer="1079" to-port="1"/>
		<edge from-layer="1038" from-port="2" to-layer="1079" to-port="2"/>
		<edge from-layer="1056" from-port="2" to-layer="1079" to-port="3"/>
		<edge from-layer="1078" from-port="2" to-layer="1079" to-port="4"/>
		<edge from-layer="974" from-port="3" to-layer="1081" to-port="0"/>
		<edge from-layer="1080" from-port="1" to-layer="1081" to-port="1"/>
		<edge from-layer="1081" from-port="2" to-layer="1083" to-port="0"/>
		<edge from-layer="1082" from-port="1" to-layer="1083" to-port="1"/>
		<edge from-layer="1083" from-port="2" to-layer="1085" to-port="0"/>
		<edge from-layer="1084" from-port="1" to-layer="1085" to-port="1"/>
		<edge from-layer="1085" from-port="2" to-layer="1087" to-port="0"/>
		<edge from-layer="1086" from-port="1" to-layer="1087" to-port="1"/>
		<edge from-layer="1087" from-port="2" to-layer="1089" to-port="0"/>
		<edge from-layer="1088" from-port="1" to-layer="1089" to-port="1"/>
		<edge from-layer="1089" from-port="2" to-layer="1091" to-port="0"/>
		<edge from-layer="1090" from-port="1" to-layer="1091" to-port="1"/>
		<edge from-layer="974" from-port="3" to-layer="1092" to-port="0"/>
		<edge from-layer="1091" from-port="2" to-layer="1093" to-port="0"/>
		<edge from-layer="1092" from-port="1" to-layer="1093" to-port="1"/>
		<edge from-layer="1093" from-port="2" to-layer="1094" to-port="0"/>
		<edge from-layer="993" from-port="1" to-layer="1094" to-port="1"/>
		<edge from-layer="971" from-port="1" to-layer="1095" to-port="0"/>
		<edge from-layer="1079" from-port="5" to-layer="1095" to-port="1"/>
		<edge from-layer="1094" from-port="2" to-layer="1095" to-port="2"/>
		<edge from-layer="1095" from-port="3" to-layer="1098" to-port="0"/>
		<edge from-layer="1096" from-port="1" to-layer="1098" to-port="1"/>
		<edge from-layer="1097" from-port="1" to-layer="1098" to-port="2"/>
		<edge from-layer="1098" from-port="3" to-layer="1099" to-port="0"/>
		<edge from-layer="1098" from-port="5" to-layer="1100" to-port="0"/>
		<edge from-layer="936" from-port="3" to-layer="1102" to-port="0"/>
		<edge from-layer="1102" from-port="1" to-layer="1105" to-port="0"/>
		<edge from-layer="1103" from-port="1" to-layer="1105" to-port="1"/>
		<edge from-layer="1104" from-port="1" to-layer="1105" to-port="2"/>
		<edge from-layer="1101" from-port="1" to-layer="1107" to-port="0"/>
		<edge from-layer="1105" from-port="3" to-layer="1107" to-port="1"/>
		<edge from-layer="1106" from-port="1" to-layer="1107" to-port="2"/>
		<edge from-layer="1107" from-port="3" to-layer="1109" to-port="0"/>
		<edge from-layer="1108" from-port="1" to-layer="1109" to-port="1"/>
		<edge from-layer="1109" from-port="2" to-layer="1111" to-port="0"/>
		<edge from-layer="1110" from-port="1" to-layer="1111" to-port="1"/>
		<edge from-layer="1111" from-port="2" to-layer="1113" to-port="0"/>
		<edge from-layer="1112" from-port="1" to-layer="1113" to-port="1"/>
		<edge from-layer="1113" from-port="2" to-layer="1115" to-port="0"/>
		<edge from-layer="1114" from-port="1" to-layer="1115" to-port="1"/>
		<edge from-layer="1115" from-port="2" to-layer="1117" to-port="0"/>
		<edge from-layer="1116" from-port="1" to-layer="1117" to-port="1"/>
		<edge from-layer="1117" from-port="2" to-layer="1118" to-port="0"/>
		<edge from-layer="1118" from-port="1" to-layer="1120" to-port="0"/>
		<edge from-layer="1119" from-port="1" to-layer="1121" to-port="0"/>
		<edge from-layer="1120" from-port="1" to-layer="1121" to-port="1"/>
		<edge from-layer="1121" from-port="2" to-layer="1122" to-port="0"/>
		<edge from-layer="1118" from-port="1" to-layer="1123" to-port="0"/>
		<edge from-layer="1122" from-port="1" to-layer="1123" to-port="1"/>
		<edge from-layer="1123" from-port="2" to-layer="1124" to-port="0"/>
		<edge from-layer="1121" from-port="2" to-layer="1124" to-port="1"/>
		<edge from-layer="1118" from-port="1" to-layer="1124" to-port="2"/>
		<edge from-layer="1109" from-port="2" to-layer="1125" to-port="0"/>
		<edge from-layer="1124" from-port="3" to-layer="1125" to-port="1"/>
		<edge from-layer="1125" from-port="2" to-layer="1127" to-port="0"/>
		<edge from-layer="1126" from-port="1" to-layer="1127" to-port="1"/>
		<edge from-layer="936" from-port="3" to-layer="1129" to-port="0"/>
		<edge from-layer="1129" from-port="1" to-layer="1132" to-port="0"/>
		<edge from-layer="1130" from-port="1" to-layer="1132" to-port="1"/>
		<edge from-layer="1131" from-port="1" to-layer="1132" to-port="2"/>
		<edge from-layer="1128" from-port="1" to-layer="1134" to-port="0"/>
		<edge from-layer="1132" from-port="3" to-layer="1134" to-port="1"/>
		<edge from-layer="1133" from-port="1" to-layer="1134" to-port="2"/>
		<edge from-layer="1134" from-port="3" to-layer="1136" to-port="0"/>
		<edge from-layer="1135" from-port="1" to-layer="1136" to-port="1"/>
		<edge from-layer="1118" from-port="1" to-layer="1138" to-port="0"/>
		<edge from-layer="1137" from-port="1" to-layer="1139" to-port="0"/>
		<edge from-layer="1138" from-port="1" to-layer="1139" to-port="1"/>
		<edge from-layer="1139" from-port="2" to-layer="1140" to-port="0"/>
		<edge from-layer="1118" from-port="1" to-layer="1141" to-port="0"/>
		<edge from-layer="1140" from-port="1" to-layer="1141" to-port="1"/>
		<edge from-layer="1141" from-port="2" to-layer="1142" to-port="0"/>
		<edge from-layer="1139" from-port="2" to-layer="1142" to-port="1"/>
		<edge from-layer="1118" from-port="1" to-layer="1142" to-port="2"/>
		<edge from-layer="1136" from-port="2" to-layer="1143" to-port="0"/>
		<edge from-layer="1142" from-port="3" to-layer="1143" to-port="1"/>
		<edge from-layer="1143" from-port="2" to-layer="1145" to-port="0"/>
		<edge from-layer="1144" from-port="1" to-layer="1145" to-port="1"/>
		<edge from-layer="936" from-port="3" to-layer="1147" to-port="0"/>
		<edge from-layer="1147" from-port="1" to-layer="1150" to-port="0"/>
		<edge from-layer="1148" from-port="1" to-layer="1150" to-port="1"/>
		<edge from-layer="1149" from-port="1" to-layer="1150" to-port="2"/>
		<edge from-layer="1146" from-port="1" to-layer="1152" to-port="0"/>
		<edge from-layer="1150" from-port="3" to-layer="1152" to-port="1"/>
		<edge from-layer="1151" from-port="1" to-layer="1152" to-port="2"/>
		<edge from-layer="1152" from-port="3" to-layer="1154" to-port="0"/>
		<edge from-layer="1153" from-port="1" to-layer="1154" to-port="1"/>
		<edge from-layer="1118" from-port="1" to-layer="1156" to-port="0"/>
		<edge from-layer="1155" from-port="1" to-layer="1157" to-port="0"/>
		<edge from-layer="1156" from-port="1" to-layer="1157" to-port="1"/>
		<edge from-layer="1157" from-port="2" to-layer="1158" to-port="0"/>
		<edge from-layer="1118" from-port="1" to-layer="1159" to-port="0"/>
		<edge from-layer="1158" from-port="1" to-layer="1159" to-port="1"/>
		<edge from-layer="1159" from-port="2" to-layer="1160" to-port="0"/>
		<edge from-layer="1157" from-port="2" to-layer="1160" to-port="1"/>
		<edge from-layer="1118" from-port="1" to-layer="1160" to-port="2"/>
		<edge from-layer="1154" from-port="2" to-layer="1161" to-port="0"/>
		<edge from-layer="1160" from-port="3" to-layer="1161" to-port="1"/>
		<edge from-layer="1161" from-port="2" to-layer="1163" to-port="0"/>
		<edge from-layer="1162" from-port="1" to-layer="1163" to-port="1"/>
		<edge from-layer="936" from-port="3" to-layer="1165" to-port="0"/>
		<edge from-layer="1165" from-port="1" to-layer="1168" to-port="0"/>
		<edge from-layer="1166" from-port="1" to-layer="1168" to-port="1"/>
		<edge from-layer="1167" from-port="1" to-layer="1168" to-port="2"/>
		<edge from-layer="1164" from-port="1" to-layer="1170" to-port="0"/>
		<edge from-layer="1168" from-port="3" to-layer="1170" to-port="1"/>
		<edge from-layer="1169" from-port="1" to-layer="1170" to-port="2"/>
		<edge from-layer="1170" from-port="3" to-layer="1172" to-port="0"/>
		<edge from-layer="1171" from-port="1" to-layer="1172" to-port="1"/>
		<edge from-layer="1118" from-port="1" to-layer="1174" to-port="0"/>
		<edge from-layer="1173" from-port="1" to-layer="1175" to-port="0"/>
		<edge from-layer="1174" from-port="1" to-layer="1175" to-port="1"/>
		<edge from-layer="1175" from-port="2" to-layer="1176" to-port="0"/>
		<edge from-layer="1118" from-port="1" to-layer="1177" to-port="0"/>
		<edge from-layer="1176" from-port="1" to-layer="1177" to-port="1"/>
		<edge from-layer="1177" from-port="2" to-layer="1178" to-port="0"/>
		<edge from-layer="1175" from-port="2" to-layer="1178" to-port="1"/>
		<edge from-layer="1118" from-port="1" to-layer="1178" to-port="2"/>
		<edge from-layer="1172" from-port="2" to-layer="1179" to-port="0"/>
		<edge from-layer="1178" from-port="3" to-layer="1179" to-port="1"/>
		<edge from-layer="1179" from-port="2" to-layer="1181" to-port="0"/>
		<edge from-layer="1180" from-port="1" to-layer="1181" to-port="1"/>
		<edge from-layer="936" from-port="3" to-layer="1183" to-port="0"/>
		<edge from-layer="1183" from-port="1" to-layer="1186" to-port="0"/>
		<edge from-layer="1184" from-port="1" to-layer="1186" to-port="1"/>
		<edge from-layer="1185" from-port="1" to-layer="1186" to-port="2"/>
		<edge from-layer="1182" from-port="1" to-layer="1188" to-port="0"/>
		<edge from-layer="1186" from-port="3" to-layer="1188" to-port="1"/>
		<edge from-layer="1187" from-port="1" to-layer="1188" to-port="2"/>
		<edge from-layer="1188" from-port="3" to-layer="1192" to-port="0"/>
		<edge from-layer="1189" from-port="1" to-layer="1192" to-port="1"/>
		<edge from-layer="1190" from-port="1" to-layer="1192" to-port="2"/>
		<edge from-layer="1191" from-port="1" to-layer="1192" to-port="3"/>
		<edge from-layer="1192" from-port="4" to-layer="1194" to-port="0"/>
		<edge from-layer="1193" from-port="1" to-layer="1194" to-port="1"/>
		<edge from-layer="1118" from-port="1" to-layer="1196" to-port="0"/>
		<edge from-layer="1195" from-port="1" to-layer="1197" to-port="0"/>
		<edge from-layer="1196" from-port="1" to-layer="1197" to-port="1"/>
		<edge from-layer="1197" from-port="2" to-layer="1198" to-port="0"/>
		<edge from-layer="1118" from-port="1" to-layer="1199" to-port="0"/>
		<edge from-layer="1198" from-port="1" to-layer="1199" to-port="1"/>
		<edge from-layer="1199" from-port="2" to-layer="1200" to-port="0"/>
		<edge from-layer="1197" from-port="2" to-layer="1200" to-port="1"/>
		<edge from-layer="1118" from-port="1" to-layer="1200" to-port="2"/>
		<edge from-layer="1194" from-port="2" to-layer="1201" to-port="0"/>
		<edge from-layer="1200" from-port="3" to-layer="1201" to-port="1"/>
		<edge from-layer="1201" from-port="2" to-layer="1203" to-port="0"/>
		<edge from-layer="1202" from-port="1" to-layer="1203" to-port="1"/>
		<edge from-layer="1127" from-port="2" to-layer="1204" to-port="0"/>
		<edge from-layer="1145" from-port="2" to-layer="1204" to-port="1"/>
		<edge from-layer="1163" from-port="2" to-layer="1204" to-port="2"/>
		<edge from-layer="1181" from-port="2" to-layer="1204" to-port="3"/>
		<edge from-layer="1203" from-port="2" to-layer="1204" to-port="4"/>
		<edge from-layer="939" from-port="4" to-layer="1206" to-port="0"/>
		<edge from-layer="1205" from-port="1" to-layer="1206" to-port="1"/>
		<edge from-layer="1206" from-port="2" to-layer="1208" to-port="0"/>
		<edge from-layer="1207" from-port="1" to-layer="1208" to-port="1"/>
		<edge from-layer="1208" from-port="2" to-layer="1210" to-port="0"/>
		<edge from-layer="1209" from-port="1" to-layer="1210" to-port="1"/>
		<edge from-layer="1210" from-port="2" to-layer="1212" to-port="0"/>
		<edge from-layer="1211" from-port="1" to-layer="1212" to-port="1"/>
		<edge from-layer="1212" from-port="2" to-layer="1214" to-port="0"/>
		<edge from-layer="1213" from-port="1" to-layer="1214" to-port="1"/>
		<edge from-layer="1214" from-port="2" to-layer="1216" to-port="0"/>
		<edge from-layer="1215" from-port="1" to-layer="1216" to-port="1"/>
		<edge from-layer="939" from-port="4" to-layer="1217" to-port="0"/>
		<edge from-layer="1216" from-port="2" to-layer="1218" to-port="0"/>
		<edge from-layer="1217" from-port="1" to-layer="1218" to-port="1"/>
		<edge from-layer="1218" from-port="2" to-layer="1219" to-port="0"/>
		<edge from-layer="1118" from-port="1" to-layer="1219" to-port="1"/>
		<edge from-layer="936" from-port="3" to-layer="1220" to-port="0"/>
		<edge from-layer="1204" from-port="5" to-layer="1220" to-port="1"/>
		<edge from-layer="1219" from-port="2" to-layer="1220" to-port="2"/>
		<edge from-layer="790" from-port="3" to-layer="1222" to-port="0"/>
		<edge from-layer="1221" from-port="1" to-layer="1222" to-port="1"/>
		<edge from-layer="1222" from-port="2" to-layer="1225" to-port="0"/>
		<edge from-layer="1223" from-port="1" to-layer="1225" to-port="1"/>
		<edge from-layer="1224" from-port="1" to-layer="1225" to-port="2"/>
		<edge from-layer="1220" from-port="3" to-layer="1226" to-port="0"/>
		<edge from-layer="1225" from-port="3" to-layer="1226" to-port="1"/>
		<edge from-layer="1095" from-port="3" to-layer="1228" to-port="0"/>
		<edge from-layer="1228" from-port="1" to-layer="1231" to-port="0"/>
		<edge from-layer="1229" from-port="1" to-layer="1231" to-port="1"/>
		<edge from-layer="1230" from-port="1" to-layer="1231" to-port="2"/>
		<edge from-layer="1227" from-port="1" to-layer="1233" to-port="0"/>
		<edge from-layer="1231" from-port="3" to-layer="1233" to-port="1"/>
		<edge from-layer="1232" from-port="1" to-layer="1233" to-port="2"/>
		<edge from-layer="1233" from-port="3" to-layer="1235" to-port="0"/>
		<edge from-layer="1234" from-port="1" to-layer="1235" to-port="1"/>
		<edge from-layer="1235" from-port="2" to-layer="1237" to-port="0"/>
		<edge from-layer="1236" from-port="1" to-layer="1237" to-port="1"/>
		<edge from-layer="1237" from-port="2" to-layer="1239" to-port="0"/>
		<edge from-layer="1238" from-port="1" to-layer="1239" to-port="1"/>
		<edge from-layer="1239" from-port="2" to-layer="1241" to-port="0"/>
		<edge from-layer="1240" from-port="1" to-layer="1241" to-port="1"/>
		<edge from-layer="1241" from-port="2" to-layer="1243" to-port="0"/>
		<edge from-layer="1242" from-port="1" to-layer="1243" to-port="1"/>
		<edge from-layer="1243" from-port="2" to-layer="1244" to-port="0"/>
		<edge from-layer="1244" from-port="1" to-layer="1246" to-port="0"/>
		<edge from-layer="1245" from-port="1" to-layer="1247" to-port="0"/>
		<edge from-layer="1246" from-port="1" to-layer="1247" to-port="1"/>
		<edge from-layer="1247" from-port="2" to-layer="1248" to-port="0"/>
		<edge from-layer="1244" from-port="1" to-layer="1249" to-port="0"/>
		<edge from-layer="1248" from-port="1" to-layer="1249" to-port="1"/>
		<edge from-layer="1249" from-port="2" to-layer="1250" to-port="0"/>
		<edge from-layer="1247" from-port="2" to-layer="1250" to-port="1"/>
		<edge from-layer="1244" from-port="1" to-layer="1250" to-port="2"/>
		<edge from-layer="1235" from-port="2" to-layer="1251" to-port="0"/>
		<edge from-layer="1250" from-port="3" to-layer="1251" to-port="1"/>
		<edge from-layer="1251" from-port="2" to-layer="1253" to-port="0"/>
		<edge from-layer="1252" from-port="1" to-layer="1253" to-port="1"/>
		<edge from-layer="1095" from-port="3" to-layer="1255" to-port="0"/>
		<edge from-layer="1255" from-port="1" to-layer="1258" to-port="0"/>
		<edge from-layer="1256" from-port="1" to-layer="1258" to-port="1"/>
		<edge from-layer="1257" from-port="1" to-layer="1258" to-port="2"/>
		<edge from-layer="1254" from-port="1" to-layer="1260" to-port="0"/>
		<edge from-layer="1258" from-port="3" to-layer="1260" to-port="1"/>
		<edge from-layer="1259" from-port="1" to-layer="1260" to-port="2"/>
		<edge from-layer="1260" from-port="3" to-layer="1262" to-port="0"/>
		<edge from-layer="1261" from-port="1" to-layer="1262" to-port="1"/>
		<edge from-layer="1244" from-port="1" to-layer="1264" to-port="0"/>
		<edge from-layer="1263" from-port="1" to-layer="1265" to-port="0"/>
		<edge from-layer="1264" from-port="1" to-layer="1265" to-port="1"/>
		<edge from-layer="1265" from-port="2" to-layer="1266" to-port="0"/>
		<edge from-layer="1244" from-port="1" to-layer="1267" to-port="0"/>
		<edge from-layer="1266" from-port="1" to-layer="1267" to-port="1"/>
		<edge from-layer="1267" from-port="2" to-layer="1268" to-port="0"/>
		<edge from-layer="1265" from-port="2" to-layer="1268" to-port="1"/>
		<edge from-layer="1244" from-port="1" to-layer="1268" to-port="2"/>
		<edge from-layer="1262" from-port="2" to-layer="1269" to-port="0"/>
		<edge from-layer="1268" from-port="3" to-layer="1269" to-port="1"/>
		<edge from-layer="1269" from-port="2" to-layer="1271" to-port="0"/>
		<edge from-layer="1270" from-port="1" to-layer="1271" to-port="1"/>
		<edge from-layer="1095" from-port="3" to-layer="1273" to-port="0"/>
		<edge from-layer="1273" from-port="1" to-layer="1276" to-port="0"/>
		<edge from-layer="1274" from-port="1" to-layer="1276" to-port="1"/>
		<edge from-layer="1275" from-port="1" to-layer="1276" to-port="2"/>
		<edge from-layer="1272" from-port="1" to-layer="1278" to-port="0"/>
		<edge from-layer="1276" from-port="3" to-layer="1278" to-port="1"/>
		<edge from-layer="1277" from-port="1" to-layer="1278" to-port="2"/>
		<edge from-layer="1278" from-port="3" to-layer="1280" to-port="0"/>
		<edge from-layer="1279" from-port="1" to-layer="1280" to-port="1"/>
		<edge from-layer="1244" from-port="1" to-layer="1282" to-port="0"/>
		<edge from-layer="1281" from-port="1" to-layer="1283" to-port="0"/>
		<edge from-layer="1282" from-port="1" to-layer="1283" to-port="1"/>
		<edge from-layer="1283" from-port="2" to-layer="1284" to-port="0"/>
		<edge from-layer="1244" from-port="1" to-layer="1285" to-port="0"/>
		<edge from-layer="1284" from-port="1" to-layer="1285" to-port="1"/>
		<edge from-layer="1285" from-port="2" to-layer="1286" to-port="0"/>
		<edge from-layer="1283" from-port="2" to-layer="1286" to-port="1"/>
		<edge from-layer="1244" from-port="1" to-layer="1286" to-port="2"/>
		<edge from-layer="1280" from-port="2" to-layer="1287" to-port="0"/>
		<edge from-layer="1286" from-port="3" to-layer="1287" to-port="1"/>
		<edge from-layer="1287" from-port="2" to-layer="1289" to-port="0"/>
		<edge from-layer="1288" from-port="1" to-layer="1289" to-port="1"/>
		<edge from-layer="1095" from-port="3" to-layer="1291" to-port="0"/>
		<edge from-layer="1291" from-port="1" to-layer="1294" to-port="0"/>
		<edge from-layer="1292" from-port="1" to-layer="1294" to-port="1"/>
		<edge from-layer="1293" from-port="1" to-layer="1294" to-port="2"/>
		<edge from-layer="1290" from-port="1" to-layer="1296" to-port="0"/>
		<edge from-layer="1294" from-port="3" to-layer="1296" to-port="1"/>
		<edge from-layer="1295" from-port="1" to-layer="1296" to-port="2"/>
		<edge from-layer="1296" from-port="3" to-layer="1298" to-port="0"/>
		<edge from-layer="1297" from-port="1" to-layer="1298" to-port="1"/>
		<edge from-layer="1244" from-port="1" to-layer="1300" to-port="0"/>
		<edge from-layer="1299" from-port="1" to-layer="1301" to-port="0"/>
		<edge from-layer="1300" from-port="1" to-layer="1301" to-port="1"/>
		<edge from-layer="1301" from-port="2" to-layer="1302" to-port="0"/>
		<edge from-layer="1244" from-port="1" to-layer="1303" to-port="0"/>
		<edge from-layer="1302" from-port="1" to-layer="1303" to-port="1"/>
		<edge from-layer="1303" from-port="2" to-layer="1304" to-port="0"/>
		<edge from-layer="1301" from-port="2" to-layer="1304" to-port="1"/>
		<edge from-layer="1244" from-port="1" to-layer="1304" to-port="2"/>
		<edge from-layer="1298" from-port="2" to-layer="1305" to-port="0"/>
		<edge from-layer="1304" from-port="3" to-layer="1305" to-port="1"/>
		<edge from-layer="1305" from-port="2" to-layer="1307" to-port="0"/>
		<edge from-layer="1306" from-port="1" to-layer="1307" to-port="1"/>
		<edge from-layer="1095" from-port="3" to-layer="1309" to-port="0"/>
		<edge from-layer="1309" from-port="1" to-layer="1312" to-port="0"/>
		<edge from-layer="1310" from-port="1" to-layer="1312" to-port="1"/>
		<edge from-layer="1311" from-port="1" to-layer="1312" to-port="2"/>
		<edge from-layer="1308" from-port="1" to-layer="1314" to-port="0"/>
		<edge from-layer="1312" from-port="3" to-layer="1314" to-port="1"/>
		<edge from-layer="1313" from-port="1" to-layer="1314" to-port="2"/>
		<edge from-layer="1314" from-port="3" to-layer="1318" to-port="0"/>
		<edge from-layer="1315" from-port="1" to-layer="1318" to-port="1"/>
		<edge from-layer="1316" from-port="1" to-layer="1318" to-port="2"/>
		<edge from-layer="1317" from-port="1" to-layer="1318" to-port="3"/>
		<edge from-layer="1318" from-port="4" to-layer="1320" to-port="0"/>
		<edge from-layer="1319" from-port="1" to-layer="1320" to-port="1"/>
		<edge from-layer="1244" from-port="1" to-layer="1322" to-port="0"/>
		<edge from-layer="1321" from-port="1" to-layer="1323" to-port="0"/>
		<edge from-layer="1322" from-port="1" to-layer="1323" to-port="1"/>
		<edge from-layer="1323" from-port="2" to-layer="1324" to-port="0"/>
		<edge from-layer="1244" from-port="1" to-layer="1325" to-port="0"/>
		<edge from-layer="1324" from-port="1" to-layer="1325" to-port="1"/>
		<edge from-layer="1325" from-port="2" to-layer="1326" to-port="0"/>
		<edge from-layer="1323" from-port="2" to-layer="1326" to-port="1"/>
		<edge from-layer="1244" from-port="1" to-layer="1326" to-port="2"/>
		<edge from-layer="1320" from-port="2" to-layer="1327" to-port="0"/>
		<edge from-layer="1326" from-port="3" to-layer="1327" to-port="1"/>
		<edge from-layer="1327" from-port="2" to-layer="1329" to-port="0"/>
		<edge from-layer="1328" from-port="1" to-layer="1329" to-port="1"/>
		<edge from-layer="1253" from-port="2" to-layer="1330" to-port="0"/>
		<edge from-layer="1271" from-port="2" to-layer="1330" to-port="1"/>
		<edge from-layer="1289" from-port="2" to-layer="1330" to-port="2"/>
		<edge from-layer="1307" from-port="2" to-layer="1330" to-port="3"/>
		<edge from-layer="1329" from-port="2" to-layer="1330" to-port="4"/>
		<edge from-layer="1098" from-port="4" to-layer="1332" to-port="0"/>
		<edge from-layer="1331" from-port="1" to-layer="1332" to-port="1"/>
		<edge from-layer="1332" from-port="2" to-layer="1334" to-port="0"/>
		<edge from-layer="1333" from-port="1" to-layer="1334" to-port="1"/>
		<edge from-layer="1334" from-port="2" to-layer="1336" to-port="0"/>
		<edge from-layer="1335" from-port="1" to-layer="1336" to-port="1"/>
		<edge from-layer="1336" from-port="2" to-layer="1338" to-port="0"/>
		<edge from-layer="1337" from-port="1" to-layer="1338" to-port="1"/>
		<edge from-layer="1338" from-port="2" to-layer="1340" to-port="0"/>
		<edge from-layer="1339" from-port="1" to-layer="1340" to-port="1"/>
		<edge from-layer="1340" from-port="2" to-layer="1342" to-port="0"/>
		<edge from-layer="1341" from-port="1" to-layer="1342" to-port="1"/>
		<edge from-layer="1098" from-port="4" to-layer="1343" to-port="0"/>
		<edge from-layer="1342" from-port="2" to-layer="1344" to-port="0"/>
		<edge from-layer="1343" from-port="1" to-layer="1344" to-port="1"/>
		<edge from-layer="1344" from-port="2" to-layer="1345" to-port="0"/>
		<edge from-layer="1244" from-port="1" to-layer="1345" to-port="1"/>
		<edge from-layer="1095" from-port="3" to-layer="1346" to-port="0"/>
		<edge from-layer="1330" from-port="5" to-layer="1346" to-port="1"/>
		<edge from-layer="1345" from-port="2" to-layer="1346" to-port="2"/>
		<edge from-layer="949" from-port="3" to-layer="1348" to-port="0"/>
		<edge from-layer="1347" from-port="1" to-layer="1348" to-port="1"/>
		<edge from-layer="1348" from-port="2" to-layer="1351" to-port="0"/>
		<edge from-layer="1349" from-port="1" to-layer="1351" to-port="1"/>
		<edge from-layer="1350" from-port="1" to-layer="1351" to-port="2"/>
		<edge from-layer="1346" from-port="3" to-layer="1352" to-port="0"/>
		<edge from-layer="1351" from-port="3" to-layer="1352" to-port="1"/>
		<edge from-layer="777" from-port="3" to-layer="1354" to-port="0"/>
		<edge from-layer="1354" from-port="1" to-layer="1357" to-port="0"/>
		<edge from-layer="1355" from-port="1" to-layer="1357" to-port="1"/>
		<edge from-layer="1356" from-port="1" to-layer="1357" to-port="2"/>
		<edge from-layer="1353" from-port="1" to-layer="1359" to-port="0"/>
		<edge from-layer="1357" from-port="3" to-layer="1359" to-port="1"/>
		<edge from-layer="1358" from-port="1" to-layer="1359" to-port="2"/>
		<edge from-layer="1359" from-port="3" to-layer="1361" to-port="0"/>
		<edge from-layer="1360" from-port="1" to-layer="1361" to-port="1"/>
		<edge from-layer="1361" from-port="2" to-layer="1363" to-port="0"/>
		<edge from-layer="1362" from-port="1" to-layer="1363" to-port="1"/>
		<edge from-layer="1363" from-port="2" to-layer="1365" to-port="0"/>
		<edge from-layer="1364" from-port="1" to-layer="1365" to-port="1"/>
		<edge from-layer="1365" from-port="2" to-layer="1367" to-port="0"/>
		<edge from-layer="1366" from-port="1" to-layer="1367" to-port="1"/>
		<edge from-layer="1367" from-port="2" to-layer="1369" to-port="0"/>
		<edge from-layer="1368" from-port="1" to-layer="1369" to-port="1"/>
		<edge from-layer="1369" from-port="2" to-layer="1370" to-port="0"/>
		<edge from-layer="1370" from-port="1" to-layer="1372" to-port="0"/>
		<edge from-layer="1371" from-port="1" to-layer="1373" to-port="0"/>
		<edge from-layer="1372" from-port="1" to-layer="1373" to-port="1"/>
		<edge from-layer="1373" from-port="2" to-layer="1374" to-port="0"/>
		<edge from-layer="1370" from-port="1" to-layer="1375" to-port="0"/>
		<edge from-layer="1374" from-port="1" to-layer="1375" to-port="1"/>
		<edge from-layer="1375" from-port="2" to-layer="1376" to-port="0"/>
		<edge from-layer="1373" from-port="2" to-layer="1376" to-port="1"/>
		<edge from-layer="1370" from-port="1" to-layer="1376" to-port="2"/>
		<edge from-layer="1361" from-port="2" to-layer="1377" to-port="0"/>
		<edge from-layer="1376" from-port="3" to-layer="1377" to-port="1"/>
		<edge from-layer="1377" from-port="2" to-layer="1379" to-port="0"/>
		<edge from-layer="1378" from-port="1" to-layer="1379" to-port="1"/>
		<edge from-layer="777" from-port="3" to-layer="1381" to-port="0"/>
		<edge from-layer="1381" from-port="1" to-layer="1384" to-port="0"/>
		<edge from-layer="1382" from-port="1" to-layer="1384" to-port="1"/>
		<edge from-layer="1383" from-port="1" to-layer="1384" to-port="2"/>
		<edge from-layer="1380" from-port="1" to-layer="1386" to-port="0"/>
		<edge from-layer="1384" from-port="3" to-layer="1386" to-port="1"/>
		<edge from-layer="1385" from-port="1" to-layer="1386" to-port="2"/>
		<edge from-layer="1386" from-port="3" to-layer="1388" to-port="0"/>
		<edge from-layer="1387" from-port="1" to-layer="1388" to-port="1"/>
		<edge from-layer="1370" from-port="1" to-layer="1390" to-port="0"/>
		<edge from-layer="1389" from-port="1" to-layer="1391" to-port="0"/>
		<edge from-layer="1390" from-port="1" to-layer="1391" to-port="1"/>
		<edge from-layer="1391" from-port="2" to-layer="1392" to-port="0"/>
		<edge from-layer="1370" from-port="1" to-layer="1393" to-port="0"/>
		<edge from-layer="1392" from-port="1" to-layer="1393" to-port="1"/>
		<edge from-layer="1393" from-port="2" to-layer="1394" to-port="0"/>
		<edge from-layer="1391" from-port="2" to-layer="1394" to-port="1"/>
		<edge from-layer="1370" from-port="1" to-layer="1394" to-port="2"/>
		<edge from-layer="1388" from-port="2" to-layer="1395" to-port="0"/>
		<edge from-layer="1394" from-port="3" to-layer="1395" to-port="1"/>
		<edge from-layer="1395" from-port="2" to-layer="1397" to-port="0"/>
		<edge from-layer="1396" from-port="1" to-layer="1397" to-port="1"/>
		<edge from-layer="777" from-port="3" to-layer="1399" to-port="0"/>
		<edge from-layer="1399" from-port="1" to-layer="1402" to-port="0"/>
		<edge from-layer="1400" from-port="1" to-layer="1402" to-port="1"/>
		<edge from-layer="1401" from-port="1" to-layer="1402" to-port="2"/>
		<edge from-layer="1398" from-port="1" to-layer="1404" to-port="0"/>
		<edge from-layer="1402" from-port="3" to-layer="1404" to-port="1"/>
		<edge from-layer="1403" from-port="1" to-layer="1404" to-port="2"/>
		<edge from-layer="1404" from-port="3" to-layer="1406" to-port="0"/>
		<edge from-layer="1405" from-port="1" to-layer="1406" to-port="1"/>
		<edge from-layer="1370" from-port="1" to-layer="1408" to-port="0"/>
		<edge from-layer="1407" from-port="1" to-layer="1409" to-port="0"/>
		<edge from-layer="1408" from-port="1" to-layer="1409" to-port="1"/>
		<edge from-layer="1409" from-port="2" to-layer="1410" to-port="0"/>
		<edge from-layer="1370" from-port="1" to-layer="1411" to-port="0"/>
		<edge from-layer="1410" from-port="1" to-layer="1411" to-port="1"/>
		<edge from-layer="1411" from-port="2" to-layer="1412" to-port="0"/>
		<edge from-layer="1409" from-port="2" to-layer="1412" to-port="1"/>
		<edge from-layer="1370" from-port="1" to-layer="1412" to-port="2"/>
		<edge from-layer="1406" from-port="2" to-layer="1413" to-port="0"/>
		<edge from-layer="1412" from-port="3" to-layer="1413" to-port="1"/>
		<edge from-layer="1413" from-port="2" to-layer="1415" to-port="0"/>
		<edge from-layer="1414" from-port="1" to-layer="1415" to-port="1"/>
		<edge from-layer="777" from-port="3" to-layer="1417" to-port="0"/>
		<edge from-layer="1417" from-port="1" to-layer="1420" to-port="0"/>
		<edge from-layer="1418" from-port="1" to-layer="1420" to-port="1"/>
		<edge from-layer="1419" from-port="1" to-layer="1420" to-port="2"/>
		<edge from-layer="1416" from-port="1" to-layer="1422" to-port="0"/>
		<edge from-layer="1420" from-port="3" to-layer="1422" to-port="1"/>
		<edge from-layer="1421" from-port="1" to-layer="1422" to-port="2"/>
		<edge from-layer="1422" from-port="3" to-layer="1424" to-port="0"/>
		<edge from-layer="1423" from-port="1" to-layer="1424" to-port="1"/>
		<edge from-layer="1370" from-port="1" to-layer="1426" to-port="0"/>
		<edge from-layer="1425" from-port="1" to-layer="1427" to-port="0"/>
		<edge from-layer="1426" from-port="1" to-layer="1427" to-port="1"/>
		<edge from-layer="1427" from-port="2" to-layer="1428" to-port="0"/>
		<edge from-layer="1370" from-port="1" to-layer="1429" to-port="0"/>
		<edge from-layer="1428" from-port="1" to-layer="1429" to-port="1"/>
		<edge from-layer="1429" from-port="2" to-layer="1430" to-port="0"/>
		<edge from-layer="1427" from-port="2" to-layer="1430" to-port="1"/>
		<edge from-layer="1370" from-port="1" to-layer="1430" to-port="2"/>
		<edge from-layer="1424" from-port="2" to-layer="1431" to-port="0"/>
		<edge from-layer="1430" from-port="3" to-layer="1431" to-port="1"/>
		<edge from-layer="1431" from-port="2" to-layer="1433" to-port="0"/>
		<edge from-layer="1432" from-port="1" to-layer="1433" to-port="1"/>
		<edge from-layer="777" from-port="3" to-layer="1435" to-port="0"/>
		<edge from-layer="1435" from-port="1" to-layer="1438" to-port="0"/>
		<edge from-layer="1436" from-port="1" to-layer="1438" to-port="1"/>
		<edge from-layer="1437" from-port="1" to-layer="1438" to-port="2"/>
		<edge from-layer="1434" from-port="1" to-layer="1440" to-port="0"/>
		<edge from-layer="1438" from-port="3" to-layer="1440" to-port="1"/>
		<edge from-layer="1439" from-port="1" to-layer="1440" to-port="2"/>
		<edge from-layer="1440" from-port="3" to-layer="1444" to-port="0"/>
		<edge from-layer="1441" from-port="1" to-layer="1444" to-port="1"/>
		<edge from-layer="1442" from-port="1" to-layer="1444" to-port="2"/>
		<edge from-layer="1443" from-port="1" to-layer="1444" to-port="3"/>
		<edge from-layer="1444" from-port="4" to-layer="1446" to-port="0"/>
		<edge from-layer="1445" from-port="1" to-layer="1446" to-port="1"/>
		<edge from-layer="1370" from-port="1" to-layer="1448" to-port="0"/>
		<edge from-layer="1447" from-port="1" to-layer="1449" to-port="0"/>
		<edge from-layer="1448" from-port="1" to-layer="1449" to-port="1"/>
		<edge from-layer="1449" from-port="2" to-layer="1450" to-port="0"/>
		<edge from-layer="1370" from-port="1" to-layer="1451" to-port="0"/>
		<edge from-layer="1450" from-port="1" to-layer="1451" to-port="1"/>
		<edge from-layer="1451" from-port="2" to-layer="1452" to-port="0"/>
		<edge from-layer="1449" from-port="2" to-layer="1452" to-port="1"/>
		<edge from-layer="1370" from-port="1" to-layer="1452" to-port="2"/>
		<edge from-layer="1446" from-port="2" to-layer="1453" to-port="0"/>
		<edge from-layer="1452" from-port="3" to-layer="1453" to-port="1"/>
		<edge from-layer="1453" from-port="2" to-layer="1455" to-port="0"/>
		<edge from-layer="1454" from-port="1" to-layer="1455" to-port="1"/>
		<edge from-layer="1379" from-port="2" to-layer="1456" to-port="0"/>
		<edge from-layer="1397" from-port="2" to-layer="1456" to-port="1"/>
		<edge from-layer="1415" from-port="2" to-layer="1456" to-port="2"/>
		<edge from-layer="1433" from-port="2" to-layer="1456" to-port="3"/>
		<edge from-layer="1455" from-port="2" to-layer="1456" to-port="4"/>
		<edge from-layer="780" from-port="4" to-layer="1458" to-port="0"/>
		<edge from-layer="1457" from-port="1" to-layer="1458" to-port="1"/>
		<edge from-layer="1458" from-port="2" to-layer="1460" to-port="0"/>
		<edge from-layer="1459" from-port="1" to-layer="1460" to-port="1"/>
		<edge from-layer="1460" from-port="2" to-layer="1462" to-port="0"/>
		<edge from-layer="1461" from-port="1" to-layer="1462" to-port="1"/>
		<edge from-layer="1462" from-port="2" to-layer="1464" to-port="0"/>
		<edge from-layer="1463" from-port="1" to-layer="1464" to-port="1"/>
		<edge from-layer="1464" from-port="2" to-layer="1466" to-port="0"/>
		<edge from-layer="1465" from-port="1" to-layer="1466" to-port="1"/>
		<edge from-layer="1466" from-port="2" to-layer="1468" to-port="0"/>
		<edge from-layer="1467" from-port="1" to-layer="1468" to-port="1"/>
		<edge from-layer="780" from-port="4" to-layer="1469" to-port="0"/>
		<edge from-layer="1468" from-port="2" to-layer="1470" to-port="0"/>
		<edge from-layer="1469" from-port="1" to-layer="1470" to-port="1"/>
		<edge from-layer="1470" from-port="2" to-layer="1471" to-port="0"/>
		<edge from-layer="1370" from-port="1" to-layer="1471" to-port="1"/>
		<edge from-layer="777" from-port="3" to-layer="1472" to-port="0"/>
		<edge from-layer="1456" from-port="5" to-layer="1472" to-port="1"/>
		<edge from-layer="1471" from-port="2" to-layer="1472" to-port="2"/>
		<edge from-layer="631" from-port="3" to-layer="1474" to-port="0"/>
		<edge from-layer="1473" from-port="1" to-layer="1474" to-port="1"/>
		<edge from-layer="1474" from-port="2" to-layer="1477" to-port="0"/>
		<edge from-layer="1475" from-port="1" to-layer="1477" to-port="1"/>
		<edge from-layer="1476" from-port="1" to-layer="1477" to-port="2"/>
		<edge from-layer="1472" from-port="3" to-layer="1478" to-port="0"/>
		<edge from-layer="1477" from-port="3" to-layer="1478" to-port="1"/>
		<edge from-layer="1226" from-port="2" to-layer="1479" to-port="0"/>
		<edge from-layer="1352" from-port="2" to-layer="1479" to-port="1"/>
		<edge from-layer="1478" from-port="2" to-layer="1479" to-port="2"/>
		<edge from-layer="1479" from-port="3" to-layer="1480" to-port="0"/>
	</edges>
	<meta_data>
		<MO_version value="2021.1.0-1237-bece22ac675-releases/2021/1"/>
		<cli_parameters>
			<caffe_parser_path value="DIR"/>
			<data_type value="FP16"/>
			<disable_nhwc_to_nchw value="False"/>
			<disable_omitting_optional value="False"/>
			<disable_resnet_optimization value="False"/>
			<disable_weights_compression value="False"/>
			<enable_concat_optimization value="False"/>
			<enable_flattening_nested_params value="False"/>
			<enable_ssd_gluoncv value="False"/>
			<extensions value="DIR"/>
			<framework value="onnx"/>
			<freeze_placeholder_with_value value="{}"/>
			<generate_deprecated_IR_V7 value="False"/>
			<input_model value="DIR\last.onnx"/>
			<input_model_is_text value="False"/>
			<input_shape value="[1,3,640,640]"/>
			<k value="DIR\CustomLayersMapping.xml"/>
			<keep_shape_ops value="True"/>
			<legacy_mxnet_model value="False"/>
			<log_level value="ERROR"/>
			<mean_scale_values value="{}"/>
			<mean_values value="()"/>
			<model_name value="last"/>
			<output_dir value="DIR"/>
			<placeholder_data_types value="{}"/>
			<placeholder_shapes value="[  1   3 640 640]"/>
			<progress value="False"/>
			<remove_memory value="False"/>
			<remove_output_softmax value="False"/>
			<reverse_input_channels value="False"/>
			<save_params_from_nd value="False"/>
			<scale_values value="()"/>
			<silent value="False"/>
			<static_shape value="False"/>
			<stream_output value="False"/>
			<unset unset_cli_parameters="batch, counts, disable_fusing, disable_gfusing, finegrain_fusing, input, input_checkpoint, input_meta_graph, input_proto, input_symbol, mean_file, mean_file_offsets, move_to_preprocess, nd_prefix_name, output, pretrained_model_name, saved_model_dir, saved_model_tags, scale, tensorboard_logdir, tensorflow_custom_layer_libraries, tensorflow_custom_operations_config_update, tensorflow_object_detection_api_pipeline_config, tensorflow_use_custom_operations_config, transformations_config"/>
		</cli_parameters>
	</meta_data>
</net>
